mnist/model.onnx (onnx, 140696 bytes, 6 tensors)

conv1.weight f4 [32, 1, 3, 3]
0	0x3e827b33	0.2548462
1	0x3e8da799	0.2766693
2	0xbd9fee14	-0.07809082
3	0x3e9cc6bd	0.30620375
4	0xbd959320	-0.073034525
5	0x3d89c17c	0.06726357
6	0xbe262e0b	-0.16228501
7	0x3e48758a	0.19576088
8	0x3e967333	0.29384765
9	0xbe7a6968	-0.24454272
10	0x3e9457c3	0.28973207
11	0x3d7f88e8	0.062386423
12	0x3e7c2e1a	0.24626961
13	0x3d38e868	0.045143515
14	0x3e24963e	0.16072938
15	0xbd40c5d8	-0.04706368
16	0x3e839085	0.25696197
17	0x3d49cef8	0.049269646
18	0xbe1f5918	-0.1556133
19	0x3dae02b4	0.08496609
20	0xbe1d43c8	-0.15357888
21	0xbd201dd8	-0.03909096
22	0xbe0aa2a8	-0.13538611
23	0x3e626e3e	0.22112367
24	0xbe86b81c	-0.2631234
25	0xbe1d5bb3	-0.15367012
26	0xbdc0c490	-0.09412491
27	0xbe4d3bfe	-0.20042416
28	0x3d00dd48	0.03146103
29	0xbea8905c	-0.32922637
30	0x3e9a2171	0.3010364
31	0xbe90f9d6	-0.2831561
32	0x3e83c265	0.2573425
33	0x3d6337b8	0.05547306
34	0xbdddaa3c	-0.10823485
35	0x3e52ed4a	0.20598331
36	0x3d54c9c8	0.051950246
37	0x3e89e475	0.2693211
38	0x3d154200	0.036439896
39	0xbdd74b76	-0.1051244
40	0x3db76be0	0.089561224
41	0xbdb9200c	-0.090393156
42	0x3e0fa718	0.14028585
43	0x3e985fff	0.2976074
44	0x3e454f9e	0.19268653
45	0xbe1538b8	-0.14572418
46	0x3e450a2a	0.19242159
47	0x3d744b40	0.059642076
48	0x3e2d574e	0.16927835
49	0xbe500b5e	-0.20316836
50	0xbea8f1c3	-0.3299695
51	0xbe03e0b3	-0.12878685
52	0xbe82e7be	-0.2556743
53	0x3e8c09e5	0.273513
54	0x3dc4a120	0.09601045
55	0x3e0d6288	0.13807118
56	0x3dd7e6a4	0.10542038
57	0xbbbe02c0	-0.0057986677
58	0x3e8590ad	0.2608694
59	0xbe7285a0	-0.23683786
60	0x3cabeed0	0.020987898
61	0xbe68f946	-0.2275134
62	0x3dd2806c	0.10278401
63	0xbdeb192c	-0.114794105
64	0x3dd12e20	0.10213876
65	0xbd8e3a50	-0.06944716
66	0x3e8d8caf	0.27646396
67	0xbe4a4f16	-0.19756731
68	0xbe4b920e	-0.19879934
69	0xbe4b9533	-0.19881134
70	0x3e998141	0.29981425
71	0x3de37fdc	0.111083716
72	0x3ea43961	0.32075027
73	0xbe8cd8df	-0.2750921
74	0xbea947bb	-0.33062539
75	0xbe8585ff	-0.26078793
76	0xbe659c78	-0.2242297
77	0x3e0a40f2	0.13501337
78	0x3df4724c	0.11935863
79	0x3e8dcfa5	0.27697483
80	0xbe3045f0	-0.17214179
81	0xbe68b0e3	-0.22723727
82	0x3e351aa2	0.17685941
83	0xbe09f7ee	-0.13473484
84	0x3e4f29d2	0.20230797
85	0xbda1ff4c	-0.07910022
86	0x3e434222	0.19068196
87	0xbe849a40	-0.25898933
88	0xbe2c40f8	-0.16821659
89	0x3dd02104	0.10162547
90	0x3d905224	0.07046917
91	0xbdae0d46	-0.084986255
92	0x3e4b755a	0.19868985
93	0x3e680aa2	0.22660306
94	0xbe77869e	-0.24172446
95	0xbe363a1e	-0.17795607
96	0x3e9c45e1	0.30522063
97	0xbde65a9c	-0.11247751
98	0xbdf2043c	-0.11817214
99	0xbea522db	-0.32253155
100	0xbe4378b0	-0.19089007
101	0x3daa885c	0.0832679
102	0xbd3436f8	-0.043997735
103	0xbe77c4e3	-0.241962
104	0x3c001ae0	0.0078189075
105	0xbe692893	-0.22769384
106	0xbe90cb04	-0.2827989
107	0xbe3bf5a3	-0.18355422
108	0xbe955e9a	-0.29173738
109	0xbe595706	-0.21224603
110	0x3eaa9995	0.333203
111	0x3d80f04c	0.06295833
112	0x3dd25ed0	0.1027199
113	0xbe9f2d9a	-0.3108948
114	0xbe602dc6	-0.21892461
115	0xbde33ac6	-0.110951945
116	0x3d557fa8	0.052123696
117	0xbe962c5a	-0.29330713
118	0xbe131243	-0.14362435
119	0xbe4c5876	-0.1995562
120	0x3a722800	0.0009237528
121	0xbdfe05c0	-0.124034405
122	0xbcbd3940	-0.023098588
123	0xbe674c30	-0.22587657
124	0xbe6a4a20	-0.22879839
125	0xbe47226e	-0.19446728
126	0xbde9acd0	-0.114099145
127	0xbe86b436	-0.26309365
128	0x3e8f194f	0.27948996
129	0xbd877c1c	-0.06615469
130	0x3e92d74f	0.28679892
131	0x3dd4b4ec	0.103860706
132	0xbe908520	-0.28226566
133	0x3e6c36f6	0.23067841
134	0xbdbbd50c	-0.09171495
135	0xbe02d78b	-0.12777536
136	0xbe8daa56	-0.27669019
137	0xbea9ab8b	-0.3313869
138	0x3dc35174	0.0953702
139	0xbd951fd4	-0.07281461
140	0x3e04e392	0.12977436
141	0xbe8c0f56	-0.2735545
142	0x3e7d6a72	0.24747637
143	0xbe7a8e98	-0.24468458
144	0xbd6bc1b8	-0.05755779
145	0x3d8e96a0	0.06962323
146	0x3e3036c6	0.17208394
147	0x3e89c7ed	0.26910344
148	0x3e9b786b	0.3036531
149	0xbe87534c	-0.26430738
150	0x3dabce0c	0.0838891
151	0xbe12d0fb	-0.14337532
152	0xbd159ea8	-0.03652826
153	0xbe7f7c10	-0.2494967
154	0x3e9b7405	0.30361953
155	0xbe7a8593	-0.24465017
156	0x3e366d12	0.17815045
157	0x3defea84	0.11714652
158	0x3dddd62c	0.10831866
159	0xbe388a63	-0.1802154
160	0x3e9b20b3	0.30298385
161	0x3d96042c	0.073250145
162	0x3d2fa2f8	0.04288003
163	0xbe96669c	-0.2937516
164	0x3e0f49ae	0.1399295
165	0xbd4cd400	-0.050006866
166	0xbe1c5f83	-0.1527081
167	0x3e9297f3	0.28631553
168	0x3d983320	0.07431626
169	0xbe3cda08	-0.18442547
170	0xbe2cc318	-0.16871297
171	0xbc8267b0	-0.015918583
172	0x3e3e965a	0.18612042
173	0xbdae71c6	-0.08517794
174	0xbe42c198	-0.19019163
175	0xbde9c63c	-0.11414763
176	0xbe7f0066	-0.24902496
177	0x3df3760c	0.1188775
178	0x3e841a55	0.2580134
179	0xbea0ac28	-0.31381345
180	0x3d9e8cc0	0.0774169
181	0x3e30547a	0.17219725
182	0x3d779338	0.060443133
183	0xbdf31d4c	-0.11870822
184	0x3e322802	0.17398074
185	0x3e33600a	0.17517105
186	0x3dff4484	0.1246424
187	0xbd6feb18	-0.058573812
188	0xbdb4c560	-0.08826709
189	0x3d121088	0.035660297
190	0xbd713118	-0.05888471
191	0xbdcb6f76	-0.09933369
192	0x3e5a2ec2	0.21306899
193	0x3e92abbd	0.2864665
194	0xbd072a18	-0.032999128
195	0xbd98d8d0	-0.07463229
196	0x3b9f6300	0.0048640966
197	0xbca30b10	-0.019902736
198	0x3da41eec	0.080137104
199	0x3dbf4e60	0.09341121
200	0xbe9b0258	-0.30275226
201	0xbdfbee06	-0.12301259
202	0x3e8fb933	0.28070983
203	0x3e04f7d6	0.12985167
204	0xbc87d110	-0.016579181
205	0xbe4dcab6	-0.2009686
206	0xbe50d458	-0.20393503
207	0xbe98e0a7	-0.29858896
208	0xbdde8610	-0.10865414
209	0x3de68a14	0.11256805
210	0x3e59a43a	0.21254054
211	0x3e1d97ba	0.1538991
212	0xbe96dc1b	-0.29464802
213	0xbe4d43db	-0.20045416
214	0xbd5778e8	-0.05260554
215	0x3ea51825	0.32244983
216	0x3d458178	0.048219174
217	0xbdb0ca6c	-0.08632359
218	0x3e0d36fe	0.13790509
219	0xbe0201f0	-0.12696052
220	0xbe5cee10	-0.21575189
221	0x3e792286	0.24329576
222	0xbe1b3473	-0.15156727
223	0xbd88da1c	-0.06682226
224	0xbea9c7aa	-0.33160144
225	0x3e6471c2	0.2230902
226	0x3e814d91	0.2525449
227	0x3df8cbf0	0.12148273
228	0xbe6e00c0	-0.23242474
229	0xbea87010	-0.32897997
230	0xbe8a9ca4	-0.27072632
231	0x3e7e884a	0.24856678
232	0x3e23e048	0.16003525
233	0x3e8f9de5	0.2805015
234	0x3e32d072	0.17462328
235	0x3dacc710	0.08436406
236	0xbb55ec80	-0.0032642186
237	0xbe81cb04	-0.253502
238	0xbe9238f3	-0.28559074
239	0xbe9fa202	-0.3117829
240	0x3e0bba98	0.13645399
241	0xbe279570	-0.163656
242	0xbd896370	-0.06708419
243	0xbe44706b	-0.19183509
244	0xbd78cbc0	-0.060741186
245	0xbe703e08	-0.23461163
246	0xbe5f0856	-0.21780524
247	0x3de272ac	0.11057028
248	0xbdcae2d6	-0.09906547
249	0x3e52b846	0.20578107
250	0xbddb0166	-0.10693626
251	0xbe7a6416	-0.24452242
252	0xbd70e5e0	-0.058812976
253	0xbe2575e0	-0.16158247
254	0xbdd0db2c	-0.10198054
255	0xbea27953	-0.31733188

conv1.bias f4 [32]
0	0x3e8f1341	0.27944377
1	0xbd562db8	-0.052289695
2	0xbd1b7ca8	-0.03796068
3	0xbe0b4e10	-0.13603997
4	0xbe9a1f6b	-0.30102095
5	0xbea61554	-0.32438147
6	0x3dfdb804	0.12388614
7	0xbe3b6863	-0.18301539
8	0xbe5b6f73	-0.21429233
9	0xbcd50e30	-0.026007742
10	0xbde355ec	-0.11100373
11	0xbddcdb5c	-0.10784027
12	0x3c2f7aa0	0.010710388
13	0xbd90cd54	-0.07070413
14	0xbdeb0cf6	-0.114770815
15	0xbe236eb3	-0.15960197
16	0xbe8ae4aa	-0.27127582
17	0x3e8f1af1	0.27950242
18	0xbe0898e3	-0.13339572
19	0x3db4e484	0.088326484
20	0xbdecdcb0	-0.1156553
21	0x3cdde5c0	0.027087092
22	0x3e9f1cd5	0.31076685
23	0x3e1d4290	0.15357423
24	0xbe93e652	-0.28886658
25	0x3e0779e6	0.13230094
26	0x3ea2010d	0.31641427
27	0x3db39924	0.08769444
28	0x3e64d69a	0.22347489
29	0x3ea84215	0.32862917
30	0xbd513568	-0.051076323
31	0x3d8db0c4	0.06918481

conv2.weight f4 [64, 32, 3, 3]
0	0xbd27c0c8	-0.040955335
1	0xbc46f450	-0.01214321
2	0x3d32bf25	0.04363932
3	0x3cf776a6	0.030207943
4	0xbd18baba	-0.03728745
5	0xbd418ad1	-0.047251526
6	0xbd24efa1	-0.04026759
7	0xbd6e3122	-0.058152325
8	0xbd3a3dfa	-0.04546926
9	0xbc6ebffc	-0.01457214
10	0x3d22e343	0.039767515
11	0x3c2198cc	0.00986309
12	0xbd37943d	-0.044819105
13	0xbd419fc2	-0.047271498
14	0x3cf023ee	0.029314008
15	0xbd33886a	-0.043831266
16	0xbbedbe58	-0.0072553568
17	0x3ce79016	0.028266948
18	0xbcdf6868	-0.027271464
19	0xbbd28ad0	-0.006425239
20	0xbba81260	-0.0051291436
21	0xbc6467fc	-0.013940807
22	0xbcf4c0f0	-0.029877156
23	0xbd572822	-0.052528508
24	0xbd431ab6	-0.047632895
25	0xbd013d12	-0.03155238
26	0x3d691d1d	0.05691253
27	0xbce928f6	-0.028461915
28	0xbd221454	-0.039570168
29	0x3c6a0424	0.014283214
30	0x3c850aca	0.016240496
31	0x3d043e35	0.032285888
32	0x3d377645	0.044790525
33	0x3d06681b	0.032814126
34	0xbd6f4ecc	-0.058424756
35	0x3bab3f18	0.005226027
36	0x3d12343b	0.035694342
37	0xbbb27638	-0.0054462217
38	0xbd0e3a58	-0.03472361
39	0x3d6618e5	0.056176085
40	0xbcb48cd0	-0.0220398
41	0xbd096a9f	-0.033548947
42	0xbd599939	-0.05312464
43	0x3b2c7f70	0.0026321076
44	0x3cd5e88e	0.026111867
45	0x3c55b634	0.013043929
46	0x3c3eea34	0.011652518
47	0xbd370b32	-0.04468841
48	0xbd6166f6	-0.05502983
49	0x3a880180	0.0010376424
50	0x3d5c1459	0.053730343
51	0x3d0b3ec7	0.033995416
52	0xbd0c870e	-0.034308486
53	0xbbfaa4d0	-0.0076490417
54	0xbd31ed0d	-0.04343896
55	0xbce8dfe5	-0.028427074
56	0x3c2ed6c4	0.010671321
57	0x3d036de9	0.03208724
58	0x3d47ef39	0.048812125
59	0xbd5d97e1	-0.05409992
60	0x3d21605b	0.039398532
61	0xbd2a3a8a	-0.041559733
62	0x3cb4c31e	0.022065695
63	0x3d4c3fbf	0.04986548
64	0x3a58e980	0.00082745403
65	0x3d5b9737	0.053611007
66	0xbd4da680	-0.050207615
67	0xbcb860f0	-0.02250716
68	0x3d0cc5fd	0.034368504
69	0xbc52566c	-0.012837987
70	0xbc45a004	-0.0120620765
71	0xbcc93164	-0.024559684
72	0x3d265ecd	0.040617753
73	0x3cecc65a	0.028903175
74	0x3c9aafe6	0.018882703
75	0xbd07a293	-0.033114027
76	0xbd43ec54	-0.047832802
77	0x3bd0d828	0.006373424
78	0x3c8f04ea	0.017458398
79	0xbcdee072	-0.027206633
80	0xbc87103e	-0.016487237
81	0x3d230193	0.039796423
82	0x3b99d018	0.004693996
83	0x3b2e3c50	0.0026586242
84	0xbc6d982c	-0.014501613
85	0xbd5a9284	-0.053362384
86	0xbd62f090	-0.0554052
87	0xbce6bf20	-0.028167307
88	0xbcf56042	-0.029953126
89	0x3c966482	0.018358473
90	0xbc8c8644	-0.017153867
91	0xbcbcd99c	-0.023052983
92	0x3d661e75	0.05618139
93	0x3ca8244e	0.020525124
94	0x3d2c10c3	0.042008173
95	0xbce9b0a7	-0.028526617
96	0xbcc52ca4	-0.024069138
97	0x3cb16b22	0.02165753
98	0xbd20cfc4	-0.03926064
99	0xbd1dc706	-0.03851988
100	0xbb3a8560	-0.0028460845
101	0xbcb08f32	-0.021552656
102	0xbd34efd2	-0.044174023
103	0x3d0f2a11	0.034952227
104	0x3d42178f	0.04738575
105	0x3c1c9dc4	0.009559099
106	0xbc281864	-0.010259721
107	0xbd5f907e	-0.054581158
108	0xbcafd31e	-0.021462973
109	0x3c75c944	0.015001599
110	0x3ce39dd6	0.027785223
111	0xbbf418a0	-0.0074492246
112	0xbcbed812	-0.02329639
113	0x3d067dd9	0.03283486
114	0xbd4037e4	-0.0469283
115	0x3d188b15	0.037242014
116	0xbcbb45da	-0.022860456
117	0x3a6c6c00	0.0009018779
118	0xbc3ec91c	-0.011644628
119	0x3bea18d8	0.007144075
120	0xbc91e06e	-0.017807212
121	0x3d2f7fad	0.04284637
122	0xbac8ca00	-0.001531899
123	0x3d3c67a1	0.045997266
124	0x3d680fe5	0.056655783
125	0xbceb2d0c	-0.028708003
126	0xbd3012dc	-0.042986736
127	0x3d41a495	0.0472761
128	0x3d3d21e3	0.046174895
129	0xbd384a02	-0.044992454
130	0xbb954348	-0.0045551397
131	0xbd6e02b5	-0.05810805
132	0xbd45938c	-0.048236415
133	0x3c3a7784	0.011381034
134	0x3c806b76	0.015676241
135	0x3c4ca77c	0.012491103
136	0xbc8360fe	-0.01603746
137	0x3d5eac2d	0.05436342
138	0x3c0a093c	0.008425053
139	0xbd0e6c1e	-0.034771077
140	0xbb5aa0d0	-0.0033360012
141	0x3c67d84c	0.01415069
142	0x3ca90b5e	0.020635303
143	0xbd2aa910	-0.041665137
144	0x3cb4eaf2	0.022084687
145	0xbcf69ca5	-0.03010399
146	0xbd488e16	-0.04896363
147	0xbd03d507	-0.03218558
148	0x3d68c4dd	0.05682837
149	0x3d4e53e5	0.050372977
150	0x3d582223	0.05276693
151	0x3d0dae35	0.034589965
152	0x3d3655ab	0.044515293
153	0xbc013934	-0.007887173
154	0xbd04cd72	-0.03242249
155	0x3cf1317e	0.029442545
156	0xbcfa22e2	-0.030534212
157	0xbd22e291	-0.03976685
158	0xbc9a25fa	-0.018816937
159	0x3c4a9b14	0.012366075
160	0x3cf88072	0.030334685
161	0xbcbb7dfc	-0.022887222
162	0xbd0e0e4c	-0.034681603
163	0x3c023b0c	0.007948648
164	0xbd0e43dc	-0.034732684
165	0xbd1d23be	-0.038364165
166	0x3cfb9e2a	0.030715067
167	0xbc222db0	-0.009898588
168	0x3d5c8ce3	0.053845298
169	0x3d6aca3b	0.05732177
170	0x3c90623a	0.017624963
171	0x3ca62196	0.020279687
172	0x3c5e5304	0.013569597
173	0x3a71e9c0	0.0009228252
174	0xbb8c6fe8	-0.004285801
175	0x3a544e00	0.0008098781
176	0x3cb4424a	0.022004265
177	0x3d60689f	0.054787274
178	0xbc7a33a0	-0.015271097
179	0xbccc0d78	-0.024908766
180	0xbc69cb78	-0.014269702
181	0xbce93680	-0.02846837
182	0x3c24295c	0.0100196265
183	0x3d342981	0.043984894
184	0x3d3cbcc5	0.046078462
185	0x3cdda0d6	0.027054232
186	0xbd319fb0	-0.04336518
187	0xbd0189e1	-0.031625632
188	0xbc541e10	-0.012946621
189	0xbc31f408	-0.010861404
190	0x3b9ecf58	0.0048464946
191	0xbd5d8f90	-0.05409199
192	0x3c963e56	0.018340271
193	0xbd38204a	-0.04495267
194	0xbd18b7fc	-0.037284836
195	0xbd48a968	-0.048989683
196	0x3d524d0b	0.051343005
197	0xbd648d74	-0.055798963
198	0x3d3612c3	0.044451486
199	0xbb01d1e0	-0.0019808933
200	0xbbe08ee8	-0.0068529733
201	0x3d16f707	0.036856677
202	0xbbb27748	-0.0054463483
203	0x3d175e8f	0.036955412
204	0x3d2e8199	0.042604063
205	0xbd518ce8	-0.05115977
206	0x3cb9be02	0.02267361
207	0x3c36410c	0.011123907
208	0x3c4f9484	0.012669686
209	0x3c0cf20c	0.00860263
210	0x3c8409d2	0.016117964
211	0xbce83840	-0.028347135
212	0xbbf709c0	-0.007539004
213	0x3d6551f3	0.055986356
214	0x3d222831	0.03958911
215	0xbb111470	-0.0022137426
216	0xbd630176	-0.055421315
217	0x3b294070	0.0025825761
218	0xbd245bf2	-0.04012675
219	0x3d44456d	0.047917772
220	0xbd1286ac	-0.035772964
221	0xbb8b6980	-0.00425452
222	0xbc564584	-0.013078097
223	0x3c2bcd9c	0.010486033
224	0x3d632027	0.055450585
225	0x3bb77858	0.005599063
226	0x3d0bc959	0.034127567
227	0x3d3b5921	0.045739297
228	0x3d42da17	0.047571268
229	0xbca6b51c	-0.020350032
230	0xbc57ed20	-0.013179094
231	0x3ce8a3e2	0.028398458
232	0xbc83b7dc	-0.016078882
233	0x3ce20a22	0.027592722
234	0xbc52eaac	-0.012873333
235	0xbd23b3d0	-0.039966404
236	0x3cc47cba	0.023985256
237	0x3c1404d4	0.009034354
238	0x3cd7381a	0.026271868
239	0x3d6fc973	0.058541726
240	0x3d24c8a9	0.040230427
241	0x3d64cdcb	0.055860322
242	0x3b4eb110	0.0031538643
243	0xbd4f9ec2	-0.050688513
244	0xbd2951eb	-0.04133789
245	0xbd15ed0a	-0.03660301
246	0xbd54b284	-0.05192806
247	0xbcf1f619	-0.029536294
248	0xbd5e2ffb	-0.054244976
249	0xbd5eae7e	-0.054365627
250	0xbd1039aa	-0.035211243
251	0xbd6df0a3	-0.058090817
252	0xbd142634	-0.036169246
253	0x3cb8108e	0.022468831
254	0x3d494e67	0.049147036
255	0xbc8f973a	-0.017528165

conv2.bias f4 [64]
0	0xbd708ffa	-0.058731057
1	0xbc34acbc	-0.011027511
2	0x3d19d40d	0.037555743
3	0xbd14e7f0	-0.036354005
4	0xbc9df7a8	-0.01928313
5	0x3b1cd9c0	0.00239335
6	0xbcd1aa8c	-0.025594018
7	0x3bb17068	0.005415011
8	0xbd5e8066	-0.05432167
9	0x3c825992	0.015911851
10	0x3d61d62f	0.055135902
11	0x3b6c78d0	0.0036082752
12	0x3d6b2fb7	0.05741855
13	0xbd549d08	-0.05190757
14	0xbcfacc5a	-0.03061502
15	0xbc929ff8	-0.017898545
16	0x3d4e53a5	0.05037274
17	0xbd5d1632	-0.053976245
18	0xbc2f7b58	-0.01071056
19	0xbd58274e	-0.05277186
20	0x3c39b284	0.011334065
21	0xbd519e39	-0.051176284
22	0xbd463944	-0.048394457
23	0xbd163772	-0.03667397
24	0xbcb966c2	-0.022632007
25	0x3d1941f1	0.037416402
26	0x3c1c2564	0.009530399
27	0xbd599399	-0.053119276
28	0x3d643951	0.055718724
29	0xba9cbea0	-0.0011958666
30	0x3c8cfc36	0.017210107
31	0xbcf943b4	-0.030427791
32	0xbce39855	-0.027782599
33	0xbd34c37c	-0.04413174
34	0xbd3dc82c	-0.046333477
35	0xbcf6a5f1	-0.030108424
36	0x3d053517	0.032521334
37	0xbcb7b596	-0.022425454
38	0xbd4cd171	-0.050004426
39	0x3c8d7542	0.017267827
40	0xbc7da09c	-0.015480187
41	0xbd2cfa68	-0.042230994
42	0x3d4373b3	0.04771776
43	0xbd613a68	-0.05498734
44	0xbd6aba3d	-0.057306517
45	0x3d0b7ef1	0.034056608
46	0x3d061e9f	0.032744046
47	0xbcb8bfc0	-0.022552371
48	0x3d2a9a0b	0.041650813
49	0xbd1ec0b6	-0.038758002
50	0xbce3016c	-0.027710639
51	0xbc0af9c8	-0.008482404
52	0xbca19468	-0.019724086
53	0x3d1c0e1b	0.03809939
54	0xbd6053cc	-0.054767415
55	0x3d436c7f	0.04771089
56	0x3d0a3e4b	0.033750813
57	0xbd05122a	-0.032488026
58	0xbcfe69e2	-0.031056348
59	0x3c162ebc	0.009166416
60	0xbb92d050	-0.004480399
61	0xbd560594	-0.052251413
62	0x3d4574db	0.048207145
63	0x3d3de99f	0.046365377

fc.weight f4 [10, 1600]
0	0x3ca3e1ed	0.02000519
1	0x3c427de2	0.011870833
2	0xbc8e91c5	-0.017403493
3	0xbc578710	-0.01315476
4	0xbc2ceee7	-0.010555006
5	0x3be33aec	0.0069345143
6	0x3c5ccbe6	0.013476348
7	0xba9acae0	-0.0011809729
8	0xbcc980e7	-0.024597598
9	0xbc81cfb4	-0.01584611
10	0xbc43d9e3	-0.011953804
11	0xbc89dbf6	-0.016828518
12	0x3c52e05a	0.012870872
13	0x3a9237e0	0.0011155568
14	0xbc9229d3	-0.017842209
15	0xbc787ca7	-0.015166438
16	0xbc959ffd	-0.018264765
17	0xbc8de198	-0.017319486
18	0x3c1999ca	0.009375045
19	0xbc572ba3	-0.013132962
20	0xbcaf5dc5	-0.021407017
21	0x3aeca6e0	0.0018055104
22	0xbac47ba0	-0.0014990456
23	0xbca9cdf6	-0.020728093
24	0x3bdcb684	0.0067356247
25	0x3b0bdc58	0.0021341052
26	0x3b55fd18	0.0032652076
27	0x3c33ec6a	0.0109816585
28	0xbc4ec1a0	-0.012619406
29	0xbcb2f635	-0.021845916
30	0x3c8461e7	0.016159965
31	0x3cb9c1ad	0.02267536
32	0x3cbe35c9	0.023219006
33	0x3c5a99e6	0.013342356
34	0x3cbc3fb9	0.022979604
35	0x3be73b14	0.007056603
36	0xbcb2afa3	-0.021812266
37	0x3bf3abb4	0.00743624
38	0xbc9c9bd5	-0.019117275
39	0xbcc0ece8	-0.023550466
40	0x3c1e7d82	0.009673478
41	0xbc58efc3	-0.013240757
42	0xbc93f3cb	-0.018060585
43	0x3cc168d3	0.023609554
44	0x3c028902	0.0079672355
45	0x3c2f058a	0.010682473
46	0xbbf480a8	-0.007461626
47	0x3c192bba	0.009348804
48	0xb9ce5000	-0.00039350986
49	0xbbbf5500	-0.00583899
50	0xbb9c4e28	-0.004770059
51	0x3c97fd21	0.018553318
52	0xbc8c084d	-0.017093802
53	0xbbfc906c	-0.007707646
54	0x3c958c47	0.018255366
55	0xba98aab0	-0.0011647549
56	0x3c4916da	0.012273515
57	0xbc2d9bc3	-0.0105962185
58	0x3c89684b	0.016773364
59	0xbc9194d5	-0.017771164
60	0xbc5ba1bd	-0.013405261
61	0xbcb426df	-0.021991191
62	0xbca39482	-0.019968275
63	0x3c80f3e5	0.015741298
64	0x3c846be1	0.016164722
65	0x3c5b8cde	0.013400285
66	0x3c4abed2	0.012374597
67	0x3c8aeac9	0.016957657
68	0x3c79242a	0.015206376
69	0x3c710bca	0.014712283
70	0xbc491620	-0.012273341
71	0x3c997595	0.018732825
72	0x3c87feeb	0.016601047
73	0x3bfdcd1c	0.007745398
74	0xbb93920c	-0.004503494
75	0x3cb309df	0.021855293
76	0xbad9c260	-0.0016613714
77	0xbcbee568	-0.023302749
78	0xbc19e47d	-0.009392855
79	0xba276960	-0.00063862465
80	0x3c42b572	0.01188408
81	0x3bdc59ec	0.0067245867
82	0x3b8db7ac	0.004324874
83	0x3cae4259	0.021271871
84	0x3c85e505	0.016344557
85	0xbc68a983	-0.014200571
86	0xbc148ab6	-0.009066274
87	0xbb1c2890	-0.0023827888
88	0xbababde0	-0.0014247261
89	0xbc9c264e	-0.019061234
90	0xbbdb7dc0	-0.00669834
91	0x3c9b20bf	0.018936513
92	0xbcc68d3b	-0.024237266
93	0x3b6c0c98	0.0036018249
94	0x3ba5e7e0	0.005063042
95	0xbc02d64a	-0.007985661
96	0xbc0b5480	-0.008504033
97	0xbc4d4c6d	-0.012530428
98	0xbcba1fe0	-0.022720277
99	0xbcb8aea3	-0.02254421
100	0x3c59c766	0.013292169
101	0xba449340	-0.00074987486
102	0xba8e96a0	-0.001087863
103	0xbb8659f8	-0.0041000806
104	0xbcc1b4f2	-0.023645852
105	0xbb85a760	-0.0040787905
106	0xbcbcdd7a	-0.023054827
107	0x3c49d3a2	0.012318524
108	0xbc0fc0cc	-0.008773994
109	0xbc0b3190	-0.008495703
110	0x3c10440a	0.008805284
111	0xbc8c610c	-0.01713612
112	0xbc854595	-0.01626853
113	0xbc634d00	-0.013873339
114	0xbbb8bfcc	-0.0056380983
115	0xbc816638	-0.015795812
116	0xbccc08e3	-0.024906581
117	0x3c372a26	0.011179483
118	0x3c5eb33e	0.013592539
119	0xbc2908c0	-0.010317028
120	0xbc9d7cd3	-0.01922456
121	0x3c8aa179	0.0169227
122	0xbc78b953	-0.0151809035
123	0xbc9eccb5	-0.019384721
124	0xbcb8b645	-0.02254785
125	0x3bcae5b4	0.0061919335
126	0x3bb9c1c8	0.0056688525
127	0x3cc2f1e5	0.023796985
128	0xbc21073d	-0.009828386
129	0xbc7fe6cd	-0.015618992
130	0x3cc81657	0.024424715
131	0x3c8cc5f9	0.017184244
132	0xbcb544f8	-0.022127613
133	0xbcbfd28a	-0.023415823
134	0x3c187c32	0.009306954
135	0xbc4c07f3	-0.012453067
136	0x3b8ec52c	0.004357001
137	0xbad71900	-0.0016410649
138	0xbbfed858	-0.007777255
139	0x3caed399	0.021341132
140	0x3c06501a	0.008197809
141	0x3bf6886c	0.007523587
142	0xbc99b7ba	-0.018764365
143	0xbc0fc816	-0.008775732
144	0x3c3f7562	0.011685701
145	0x3c6125a2	0.0137418825
146	0x3b2e3ac0	0.002658531
147	0xbcc896a2	-0.02448589
148	0xbc5c564a	-0.013448307
149	0x3cc9ced9	0.024634765
150	0x3ca64c79	0.020300137
151	0x3c57b096	0.01316466
152	0xbc6f2460	-0.014596075
153	0xbc5cfa8a	-0.013487468
154	0x3c142aae	0.009043379
155	0xbcab7750	-0.020930916
156	0xbb3f4f30	-0.0029191487
157	0x3c1ce2f6	0.009575596
158	0x3c2175ae	0.009854717
159	0x3c497972	0.012297021
160	0x3ac40180	0.001495406
161	0x3c8971ed	0.016777957
162	0xbcc8448f	-0.024446754
163	0xbc535b90	-0.012900248
164	0xbbfc8cd8	-0.0077072196
165	0x3c6f7d0a	0.014617214
166	0xbc9fe042	-0.019516114
167	0x3c9707e3	0.018436378
168	0xbc6d458d	-0.014481914
169	0xbbf77880	-0.0075522065
170	0x3c978cd5	0.018499771
171	0x3cc87af9	0.0244727
172	0x3bf5b30c	0.0074981507
173	0xbbaf0678	-0.0053413473
174	0x3c90e2d3	0.017686283
175	0xba9ea1a0	-0.0012102611
176	0x3c76d6e2	0.0150658805
177	0x3c25e476	0.01012527
178	0xba0ee640	-0.000545118
179	0x3cc143dd	0.02359193
180	0x3c4576e2	0.01205227
181	0x3cc053ef	0.023477523
182	0x3cc168ed	0.023609603
183	0x3b9e5dc8	0.004832957
184	0xbc3fa6c0	-0.011697471
185	0xbc09b67a	-0.008405322
186	0xbb825794	-0.0039777253
187	0xbc05ac24	-0.008158717
188	0x3b2af258	0.002608439
189	0x3cc718af	0.024303762
190	0x3c86e679	0.01646732
191	0x3be05204	0.0068457145
192	0x3c54e872	0.012994872
193	0xbc6741d7	-0.014114819
194	0x3c24aa12	0.010050314
195	0x3cb365b1	0.021899076
196	0x3c0479ae	0.008085651
197	0x39c9b880	0.0003847517
198	0x3ca562b5	0.020188669
199	0xbca86933	-0.020557975
200	0x3c673ade	0.014113156
201	0xbb9e9b28	-0.0048402734
202	0xbcbcc760	-0.023044288
203	0x3c65a3be	0.01401609
204	0xbba3d274	-0.004999453
205	0xbbb8088c	-0.0056162532
206	0xbc3b3f0d	-0.011428607
207	0xbc073f6a	-0.008254865
208	0xbb7bd9b0	-0.0038429312
209	0xbcc91918	-0.024548098
210	0x3c473192	0.012157815
211	0x3b538a68	0.0032278541
212	0x3c181c32	0.009284066
213	0x3ccbc92d	0.024876202
214	0xbbb6ce28	-0.005578775
215	0xbc75d22a	-0.01500372
216	0xbc84fcbe	-0.016233798
217	0xbb61cb68	-0.0034453515
218	0xbb9f786c	-0.0048666503
219	0x3c11d936	0.008901885
220	0x3ae8fb30	0.0017775055
221	0x3c087976	0.00832974
222	0xbc50ba70	-0.012739763
223	0xbcb055af	-0.021525232
224	0x3a7461c0	0.0009322427
225	0x3bad46b4	0.0052879695
226	0xbc43eddd	-0.0119585665
227	0xbc122c3a	-0.008921677
228	0xbb90770c	-0.0044087227
229	0xbcb72068	-0.02235432
230	0x3cbf26f7	0.02333401
231	0x3c938cbb	0.018011441
232	0xbc958613	-0.018252408
233	0xbcc3283f	-0.023822902
234	0x3cb2522b	0.021767696
235	0x3caa0a13	0.020756757
236	0xbcb7eb88	-0.022451177
237	0x3bada778	0.005299505
238	0xbc8218a2	-0.015880886
239	0xbc96bffe	-0.018402096
240	0xbc8e7760	-0.017390907
241	0x3a4d71a0	0.0007837061
242	0x3cbd238d	0.023088241
243	0x3c3ef06a	0.011653999
244	0xbcbd2043	-0.023086673
245	0x3c5cda52	0.013479786
246	0x3cb9e195	0.022690574
247	0x3c908785	0.017642746
248	0x3cbd3647	0.02309717
249	0xbc6e2ada	-0.014536584
250	0xbc5072c7	-0.012722678
251	0x3c639a86	0.013891822
252	0xbca153b5	-0.019693235
253	0xbbe7ac00	-0.0070700645
254	0x3c930251	0.01794544
255	0x3bfba844	0.007679971

fc.bias f4 [10]
0	0xbc3b6edd	-0.011440006
1	0xbccbf455	-0.02489678
2	0x3c396052	0.011314468
3	0xbc3d2437	-0.011544279
4	0xbb84dd54	-0.0040547047
5	0xbc5f0fea	-0.013614634
6	0xbbd6e980	-0.006558597
7	0x3cca4c11	0.024694474
8	0x3bcdf43c	0.0062852185
9	0xbc336060	-0.010948271
