mnist_uint8/model.onnx (onnx, 25621 bytes, 6 tensors)

conv1.weight f4 [8, 1, 5, 5]
0	0x3ea29d7c	0.31760776
1	0x3e944e37	0.28965923
2	0xbd0e3059	-0.034714077
3	0x3d770760	0.060309768
4	0xbe692146	-0.22766599
5	0x3d445e86	0.047941707
6	0xbc9dba10	-0.01925376
7	0x3e7bb8e0	0.24582243
8	0x3ebbf444	0.36709797
9	0xbcdc0e8b	-0.026862403
10	0x3e08426d	0.1330659
11	0x3dac8f37	0.084257536
12	0x3e972626	0.29521292
13	0x3ecf98cb	0.4054626
14	0x3ee4cd1c	0.44687736
15	0xbe340ffb	-0.17584221
16	0xbbc99f44	-0.006153019
17	0xbd8b30cb	-0.06796416
18	0x3c9aef6d	0.018912995
19	0x3e876214	0.26442015
20	0xbf0311a9	-0.5119882
21	0xbf129ff3	-0.57275313
22	0xbf16c4b3	-0.5889389
23	0xbea024c3	-0.31278047
24	0xbeb306c7	-0.34966108
25	0xbdf93842	-0.121689335
26	0xbd305f7d	-0.043059815
27	0xbdd2702e	-0.10275303
28	0xbe280b06	-0.16410455
29	0xbf22e017	-0.63623184
30	0x3e3e356c	0.18575066
31	0xbd07c53c	-0.03314708
32	0x3e952b72	0.2913471
33	0xbe2c373f	-0.1681795
34	0xbf0b6292	-0.5444728
35	0x3e1edc37	0.15513693
36	0x3e462863	0.19351344
37	0x3ec8e945	0.3924047
38	0x3d14dbf0	0.03634256
39	0xbe33bf03	-0.17553334
40	0x3cf15536	0.029459577
41	0x3c3da20a	0.011574278
42	0x3e95fc56	0.2929408
43	0x3ee98650	0.45610285
44	0x3eb0c22b	0.34523138
45	0xbe2195c3	-0.15779786
46	0x3d96d040	0.07363939
47	0x3dbb4c52	0.09145416
48	0x3e993403	0.29922494
49	0x3e062a76	0.13102135
50	0xbd947495	-0.07248799
51	0x3db42a56	0.087971374
52	0x3dfe2ee4	0.124112874
53	0x3efd1ffd	0.49438468
54	0x3ec89caa	0.39182025
55	0x3e45592b	0.19272296
56	0x3e9837fa	0.29730207
57	0x3eb23e59	0.34813192
58	0x3ee223b6	0.4416787
59	0xbdd71f1a	-0.10503979
60	0x3da86293	0.082219265
61	0x3d507695	0.05089434
62	0x3e7cb70a	0.24679199
63	0xbd3da1f4	-0.04629703
64	0xbe970cfd	-0.29502097
65	0x3c4a6b9c	0.012354758
66	0x3e4a8898	0.19778669
67	0xbe913eee	-0.28368324
68	0xbef3d8f6	-0.47626466
69	0xbf26e261	-0.65189177
70	0x3e2c2ca3	0.16813903
71	0xbc474e21	-0.0121646235
72	0xbe104054	-0.14087039
73	0xbf13ccc8	-0.57734346
74	0xbee0d07b	-0.43909058
75	0xbf1a9089	-0.60376793
76	0xbf0cbc05	-0.54974395
77	0xbe60a854	-0.21939212
78	0x3dcea15d	0.10089371
79	0x3eda5a68	0.426471
80	0xbeee7d4b	-0.46579966
81	0xbea294c8	-0.31754136
82	0x3da89b0f	0.082327
83	0x3e51add3	0.20476465
84	0x3f039712	0.5140239
85	0xbed6ca7b	-0.41951355
86	0x3ddf3001	0.10897828
87	0x3dbf7e95	0.093503155
88	0x3e9bf672	0.3046146
89	0x3ec16c27	0.37777826
90	0xbe049711	-0.12948252
91	0x3da53203	0.080661796
92	0x3ebc06ac	0.3672384
93	0x3edb1187	0.4278681
94	0x3c216a14	0.009851951
95	0xbca15857	-0.019695444
96	0x3e9319b1	0.28730538
97	0x3d10d9bc	0.035363898
98	0xbb76e977	-0.0037675777
99	0xbe98c772	-0.29839665
100	0x3e60b796	0.21945032
101	0x3e8d0553	0.27543125
102	0x3da4b407	0.0804215
103	0xbe5a44e8	-0.21315348
104	0xbee4b62c	-0.44670236
105	0x3e489544	0.1958819
106	0x3df75e6e	0.12078558
107	0x3daff9ee	0.08592592
108	0xbe92f7d8	-0.28704715
109	0xbf2d1190	-0.67604923
110	0x3edfd96c	0.43720567
111	0x3e9a89c5	0.30183235
112	0x3e33d57d	0.17561908
113	0xbf06352b	-0.5242488
114	0xbf3f826b	-0.7480838
115	0x3e816b9c	0.25277412
116	0x3eac2e6d	0.3362917
117	0xbdbd511d	-0.09243987
118	0xbeff584d	-0.49872056
119	0xbf1e171f	-0.6175403
120	0x3ecdace5	0.4017097
121	0x3e477e24	0.19481713
122	0xbe0a202b	-0.13488834
123	0xbf1c2a3c	-0.61001945
124	0xbed67f89	-0.41894177
125	0xbf0bc01d	-0.54590017
126	0xbefc304a	-0.49255592
127	0xbf0703ab	-0.5273997
128	0xbe94d9e4	-0.29072487
129	0xbe84437f	-0.25832745
130	0xbe9a7dbc	-0.30174053
131	0xbed0b577	-0.40763447
132	0xbf0fb565	-0.5613616
133	0xbe6e1b79	-0.23252667
134	0xbe2d1aea	-0.16904798
135	0xbe4fa3e9	-0.2027737
136	0xbe50fa27	-0.20407926
137	0xbd9fdc3d	-0.07805679
138	0x3e33d432	0.17561415
139	0x3e1b5550	0.15169263
140	0x3e96cd61	0.29453567
141	0x3e483df8	0.19554889
142	0x3ef8201b	0.48461995
143	0x3e06dea8	0.13170874
144	0x3e2b41a9	0.16724266
145	0x3ed87f23	0.42284498
146	0x3f07bea9	0.530253
147	0x3ef09f83	0.46996698
148	0x3ec21035	0.3790299
149	0xbc0a9809	-0.0084591
150	0x3df948e6	0.121721074
151	0xbdd14c73	-0.1021966
152	0xbe46fc38	-0.19432151
153	0xbeb8a601	-0.3606415
154	0x3d44809a	0.047974207
155	0xbd5561aa	-0.052095093
156	0x3e326044	0.17419535
157	0xbc84adb3	-0.016196107
158	0x3cf94c20	0.030431807
159	0xbdff4e22	-0.124660745
160	0x3ebb13f0	0.3653865
161	0x3ea91a28	0.33027768
162	0x3e587b17	0.21140705
163	0xbdd9b8d1	-0.10630954
164	0x3e730160	0.23730993
165	0x3cd1e69c	0.025622658
166	0x3e092603	0.13393407
167	0x3ed4eeef	0.41588542
168	0x3e05ccf4	0.13066465
169	0xbdb44217	-0.08801668
170	0xbe9a9dda	-0.30198556
171	0xbdc0287c	-0.09382722
172	0x3df932b6	0.121678755
173	0xbde2deda	-0.11077662
174	0xbeb7b822	-0.3588267
175	0xbd8b9906	-0.06816296
176	0x3c92bedb	0.017913273
177	0x3e71ed47	0.2362567
178	0x3e40c5d9	0.18825473
179	0xbead8a9b	-0.3389481
180	0x3dd78b41	0.105246074
181	0x3ead47d7	0.33843872
182	0x3e8ab973	0.27094612
183	0xbe046cfe	-0.12932202
184	0xbe0e79f1	-0.13913704
185	0x3e151f34	0.14562684
186	0x3e7d5d9b	0.24742739
187	0x3e54d574	0.20784551
188	0x3c0073ea	0.007840136
189	0x3d3e7443	0.046497595
190	0xbd9bcff3	-0.076080225
191	0xbd1a81bb	-0.037721377
192	0x3eb2ad0d	0.34897652
193	0x3ee7c6ad	0.45268765
194	0x3e84eeca	0.25963432
195	0xbdaf6db3	-0.08565845
196	0xbd0d3bed	-0.034480978
197	0x3cfd7fc4	0.030944712
198	0x3e6d8894	0.23196632
199	0x3ea75108	0.3267901

conv1.bias f4 [8]
0	0x3adecac8	0.0016997689
1	0xba27f971	-0.0006407714
2	0x3e3e86e5	0.18606146
3	0xbe342538	-0.17592323
4	0x3cecb695	0.028895656
5	0x3da1e752	0.07905449
6	0xbbee7328	-0.0072769113
7	0xbcbeabb5	-0.023275236

conv2.weight f4 [16, 8, 5, 5]
0	0xbe342340	-0.17591572
1	0xbcada096	-0.021194737
2	0x3daf1a2c	0.08549914
3	0x3e052c6a	0.13005224
4	0x3daf2824	0.08552578
5	0x3d05f63a	0.032705523
6	0x3de12b37	0.10994571
7	0x3e552986	0.20816621
8	0x3dd428d5	0.103593506
9	0x3d1a2b2f	0.03763884
10	0x3dad70f9	0.084688134
11	0x3cab2658	0.020892307
12	0xbdc8236c	-0.09772381
13	0xbdae3d6b	-0.08507808
14	0xbe383c6d	-0.179918
15	0xbd9aeece	-0.0756508
16	0xbe9178c6	-0.28412455
17	0xbe4283c6	-0.1899558
18	0xbd1badfc	-0.03800772
19	0x3d1067e0	0.035255313
20	0xbe759ced	-0.23985644
21	0xbe5d5a92	-0.21616581
22	0xbd7fed24	-0.062482014
23	0x3dc52ab4	0.096272856
24	0x3d8a5061	0.06753612
25	0x3de7b60c	0.113140196
26	0x3de998a2	0.114060655
27	0x3e019f48	0.12658417
28	0x3e020ae2	0.12699464
29	0x3d945b60	0.07243991
30	0x3c1c7d7a	0.0095514
31	0x3d57c7d6	0.052680813
32	0x3dda2885	0.1065226
33	0xbd711568	-0.058858305
34	0xbdd3884d	-0.10328732
35	0xbddecdcc	-0.108790964
36	0xbe6aabf9	-0.22917165
37	0xbe7fb220	-0.24970293
38	0xbe688835	-0.22708209
39	0xbdbc6e7c	-0.09200761
40	0xbe0b4d0e	-0.13603613
41	0xbd5d1778	-0.05397746
42	0xbda9829d	-0.08276866
43	0xbdd621f3	-0.10455694
44	0xbccfa12f	-0.025345413
45	0xbe39b5ce	-0.18135759
46	0xbe311187	-0.17291842
47	0xbe22e19e	-0.15906379
48	0x3cceba3c	0.025235288
49	0xbd5a94cf	-0.05336457
50	0xbd8b26c8	-0.06794506
51	0xbd34c371	-0.0441317
52	0x3d9caa13	0.076496266
53	0xbccaf16a	-0.024773318
54	0xbd7215c2	-0.05910278
55	0xbcd8529d	-0.02640658
56	0x3dc2f993	0.09520259
57	0x3e269998	0.16269529
58	0x3d0c9a8e	0.034327082
59	0xbe035a8f	-0.12827514
60	0x3d6b5127	0.05745044
61	0x3d30b2bb	0.0431392
62	0x3dcf9d58	0.10137433
63	0xbeb3b501	-0.35099033
64	0xbdf11e18	-0.11773318
65	0x3cd147b0	0.025546879
66	0x3d2a2286	0.04153683
67	0xbe783265	-0.24237974
68	0xbd83ba59	-0.06432027
69	0x3dbe3162	0.09286763
70	0x3d48a07e	0.048981182
71	0xbe16f833	-0.14743118
72	0x3d8d5b31	0.06902159
73	0x3d108a25	0.035287995
74	0xbbd50989	-0.006501381
75	0xbd1e9191	-0.03871304
76	0xbd79cb97	-0.060985174
77	0xbb7d20da	-0.0038624317
78	0xbd27bdcc	-0.04095249
79	0xbaacf35b	-0.0013195084
80	0x3dd47737	0.10374301
81	0x3d9513dd	0.07279179
82	0x3dee064f	0.11622297
83	0x3c97ff1f	0.018554268
84	0xbdd350e2	-0.103181615
85	0xbd7560da	-0.059906818
86	0x3d999cde	0.07500623
87	0xbe1835f6	-0.14864334
88	0xbde45975	-0.11149875
89	0x3d5c8a4c	0.053842828
90	0xbe001c40	-0.12510777
91	0xbe98b4fa	-0.29825574
92	0x3d12917d	0.03578328
93	0x3e0fa591	0.14028002
94	0x3dcdd27a	0.10049911
95	0xbe75a18a	-0.23987404
96	0x3c89bea3	0.016814535
97	0x3e03a42a	0.12855592
98	0x3d28ee58	0.041242927
99	0xbd18c5be	-0.037297957
100	0xbe14f446	-0.14546308
101	0x3d12e230	0.03586024
102	0x3d829ba7	0.063773446
103	0x3d60ee92	0.05491502
104	0x3d182bea	0.037151255
105	0x3cc971f3	0.024590468
106	0xbd6127ae	-0.054969482
107	0xbdcd0719	-0.100111194
108	0xbb600230	-0.0034180991
109	0x3e1d9b00	0.15391159
110	0xbd0a32a2	-0.033739693
111	0xbdcec25a	-0.10095663
112	0xbe6c71f2	-0.23090342
113	0xbe824b80	-0.25448227
114	0x3dc37775	0.09544269
115	0x3d79d39a	0.060992815
116	0xbd3299b2	-0.043603607
117	0xbe5fe560	-0.21864843
118	0xbe43c6d7	-0.1911882
119	0x3d427320	0.047473073
120	0x3de671e9	0.112521954
121	0x3ed0568d	0.40691033
122	0x3e6a9f77	0.22912394
123	0xbc8a90e6	-0.016914796
124	0x3d77ed6e	0.060529165
125	0xbd28d10f	-0.041215
126	0x3dc1741b	0.094459735
127	0x3e0b36f1	0.13595177
128	0x3e590709	0.2119409
129	0x3e67d066	0.22638091
130	0xbdc37de5	-0.09545497
131	0x3caeed7b	0.021353474
132	0x3e4b4270	0.19849563
133	0x3d8314ac	0.06400427
134	0xbe6e2840	-0.23257542
135	0xbe28a248	-0.16468155
136	0xbe5afdea	-0.21385923
137	0xbd33518c	-0.04377894
138	0x3de7ce5b	0.11318656
139	0x3c06e2bf	0.008232771
140	0xbe141617	-0.14461552
141	0xbc33dac8	-0.0109774545
142	0x3e5ea22e	0.21741554
143	0x3e854621	0.26030067
144	0x3e26d32c	0.16291493
145	0xbda815c4	-0.082072765
146	0xbe03462a	-0.12819734
147	0xbdba42cc	-0.09094772
148	0xbcfcc896	-0.030857366
149	0xbdce73e9	-0.10080702
150	0xbdd330ac	-0.10312018
151	0x3d4322d7	0.047640648
152	0x3c6c813a	0.014435107
153	0x3ce20570	0.027590483
154	0x3d4ac77a	0.049506642
155	0x3d30b5f0	0.04314226
156	0x3e15ab9a	0.14616242
157	0x3e25be0b	0.16185777
158	0x3d86c301	0.06580163
159	0xbd70db05	-0.058802623
160	0xbd8b2b77	-0.067954
161	0xbd0e6976	-0.034768544
162	0xbd7c8c9f	-0.061657544
163	0xbe325e72	-0.1741884
164	0xbe147789	-0.14498724
165	0xbd41843e	-0.047245257
166	0xbe6ddad4	-0.23228008
167	0xbe222935	-0.15836032
168	0x3a051360	0.00050764345
169	0x3da55921	0.080736406
170	0xbdc03c5a	-0.09386511
171	0xbe5dd271	-0.21662308
172	0xbb95f91c	-0.0045768153
173	0xbc098db0	-0.008395597
174	0x3c5dcc03	0.01353741
175	0x3d6b3a84	0.05742885
176	0x3d0e9f56	0.034819923
177	0x3dd63c44	0.104607135
178	0x3af6c524	0.0018827063
179	0x3d3e9be0	0.046535373
180	0x3d6d4f8e	0.057937197
181	0x3d14d988	0.036340266
182	0xbcd46da4	-0.025931187
183	0xbd8f30ef	-0.06991755
184	0x3bb741bc	0.005592553
185	0xbd8ab934	-0.06773606
186	0xbe3280ac	-0.17431897
187	0xbe543055	-0.20721562
188	0xbe48a5bc	-0.19594473
189	0xbdd3d127	-0.10342627
190	0xbe1ffd1a	-0.15623894
191	0xbe3c7c49	-0.18406786
192	0xbe121ee7	-0.14269601
193	0xbd6587f8	-0.056037873
194	0xbd1d64bd	-0.03842615
195	0xbe35c9ce	-0.17752764
196	0xbe52307e	-0.20526311
197	0xbe1b7438	-0.15181053
198	0xbcf39343	-0.029733306
199	0x3b8486ce	0.0040443903
200	0xbde2c8dc	-0.11073467
201	0xbd21a6f4	-0.03946586
202	0xbc94130d	-0.01807549
203	0x3cbe8454	0.023256458
204	0x3df99f65	0.12188605
205	0x3c2bd3fe	0.010487555
206	0x3c8f6680	0.01750493
207	0xbdb48072	-0.088135615
208	0xbc9bb556	-0.019007366
209	0x3d01f248	0.031725198
210	0xbd62c06f	-0.0553593
211	0x3cc17d48	0.023619309
212	0xbbfd8850	-0.007737197
213	0xbd909c00	-0.07061005
214	0xbd4fb74a	-0.050711907
215	0xbd95eee9	-0.07320959
216	0x3dca00b1	0.09863413
217	0x3db0c107	0.08630567
218	0xbd95a7d2	-0.073074
219	0xbdd7f8d1	-0.10545505
220	0xbd9aa6e5	-0.07551364
221	0x3d46c6b0	0.048529327
222	0x3d9d86bd	0.07691715
223	0xbd8f06dc	-0.0698373
224	0xbde9d5df	-0.11417746
225	0x3c856287	0.016282333
226	0xbd6c241f	-0.057651635
227	0x3d0e3e25	0.034727234
228	0xbc71e3ae	-0.014763756
229	0x3ccd9486	0.025095236
230	0xbcd960f8	-0.026535496
231	0x3d0a1958	0.033715576
232	0xbde54eac	-0.11196646
233	0xbcf0c233	-0.029389476
234	0xbccbbc92	-0.02487019
235	0x3c945fe7	0.018112136
236	0x3e665141	0.22491933
237	0x3dc177d0	0.094466805
238	0xbce6bc45	-0.028165946
239	0x3d7e6d41	0.06211591
240	0xbc988352	-0.018617306
241	0x3d14d44e	0.036335282
242	0x3dc4a261	0.09601284
243	0xbda108b7	-0.0786299
244	0xbdf6e38f	-0.12055122
245	0x3ce407e2	0.02783579
246	0x3d9bb069	0.07602007
247	0x3dd77a22	0.10521342
248	0x3d3662f2	0.044527955
249	0x3d3ec557	0.046574917
250	0xbdeb0e07	-0.11477285
251	0x3cf70251	0.030152472
252	0x3d8aaba7	0.06771021
253	0x3d83a32b	0.06427606
254	0x3e29f195	0.16596062
255	0xbe5577b5	-0.20846446

conv2.bias f4 [16]
0	0xbd7689af	-0.0601899
1	0xbde41967	-0.111376576
2	0xbe3610c0	-0.17779827
3	0xbd6ff8a6	-0.05858674
4	0xbe886bb9	-0.26644686
5	0xbd6c9de6	-0.05776777
6	0xbd972e9d	-0.07381938
7	0x3dbd1554	0.09232584
8	0xbd2102f9	-0.039309476
9	0x3bc1a9a8	0.005910117
10	0x3d0df87d	0.034660805
11	0xbc267e7f	-0.010161995
12	0x3ba15135	0.0049230107
13	0xbe0907bb	-0.13381855
14	0xbd6e8be4	-0.05823888
15	0x3cd8c548	0.026461259

fc.weight f4 [10, 256]
0	0xbe0f3b69	-0.13987507
1	0xbd7c9545	-0.061665792
2	0x3d009e4c	0.031400964
3	0x3d8d944d	0.06913052
4	0xbdf5cdee	-0.120021686
5	0xbd68d318	-0.05684194
6	0x3cc4aedd	0.024009163
7	0x3daf6a54	0.08565202
8	0xbecd1552	-0.4005533
9	0xbe0cf595	-0.13765557
10	0xbde7a9df	-0.11311697
11	0xbe07b2aa	-0.13251749
12	0xbdc0c20f	-0.09412014
13	0xbdaf712b	-0.08566507
14	0x3d237a3f	0.039911505
15	0x3e0d1522	0.13777593
16	0x3c89a0e4	0.016800351
17	0x3cc14aa3	0.02359516
18	0xbdebcbca	-0.11513479
19	0x3cad4583	0.02115131
20	0x3dc70b01	0.09718896
21	0x3e09e50c	0.1346628
22	0x3d07d654	0.033163384
23	0xbc30c6d1	-0.010789589
24	0x3df5a827	0.11994963
25	0x3c626d13	0.013819951
26	0xbe5ecdad	-0.21758147
27	0xbdc2aaaf	-0.095052116
28	0x3d8cdcf5	0.06878082
29	0x3c58c9de	0.013231723
30	0xbea21810	-0.31658983
31	0xbe9b3642	-0.30314833
32	0x3d6f00b0	0.058350265
33	0xbc1a717c	-0.009426471
34	0xbcbfc160	-0.023407638
35	0x3d9979e6	0.074939534
36	0x3d499e33	0.049223136
37	0x3ba8d01e	0.0051517626
38	0xbda9b6e3	-0.08286836
39	0x3d52b1fc	0.05143927
40	0x3d0ef8d7	0.03490528
41	0xbd8ea7ab	-0.06965574
42	0xbe66d3b6	-0.22541699
43	0xbcd22a8f	-0.02565506
44	0x3df82efa	0.12118335
45	0x3cb5f3e2	0.022211019
46	0xbed98379	-0.42483118
47	0xbeaf05e5	-0.34184185
48	0xba88d963	-0.0010440763
49	0x3d2ea409	0.042636905
50	0x3d686293	0.056734633
51	0x3aac04bd	0.0013123971
52	0xbc23a3b5	-0.009987761
53	0xbd99869d	-0.074963786
54	0xbeb23173	-0.34803352
55	0x3c4504bc	0.012025055
56	0x3da29fc2	0.07940628
57	0x3d7df98c	0.062005565
58	0xbd09e93f	-0.033669706
59	0x3cb75b05	0.022382269
60	0x3e35987a	0.17733946
61	0x3e1a7b9f	0.1508622
62	0x3de683b1	0.11255587
63	0xbc502c8e	-0.012705935
64	0x3ca75438	0.0204259
65	0xbc91a7ee	-0.01778027
66	0xbd151916	-0.036400877
67	0x3b722f52	0.0036954475
68	0x3d4c97f0	0.049949586
69	0x3d0e22af	0.034701046
70	0x3cdc55b1	0.02689633
71	0xbe63d241	-0.22248174
72	0x3dc7b19d	0.09750674
73	0x3d6fbb9b	0.058528524
74	0xbe52e205	-0.20594032
75	0x3da22591	0.079173215
76	0x3d874a85	0.0660601
77	0xbe786d0a	-0.24260345
78	0x3cbb0ae5	0.022832343
79	0x3df1021b	0.1176798
80	0xbdde7c44	-0.108635455
81	0xbdb14d94	-0.08657375
82	0xbde0ada5	-0.1097062
83	0xbe603e0e	-0.21898672
84	0x3b6763f2	0.0035307375
85	0x3d8c2818	0.06843585
86	0xbc3e9eab	-0.011634509
87	0xbdeca065	-0.1155403
88	0x3e126ab0	0.1429851
89	0x3e230480	0.15919685
90	0xbe03ca5d	-0.12870164
91	0x3da61d43	0.0811105
92	0xbe70bef4	-0.23510343
93	0xbe4fda9a	-0.20298234
94	0x3c927f2f	0.017882911
95	0x3d2c164a	0.042013444
96	0xbdaef0b7	-0.085420065
97	0xbc50b33f	-0.012738048
98	0x3db3c685	0.08778099
99	0x3de2f516	0.11081903
100	0xbd3bc3ae	-0.04584091
101	0xbe4180ae	-0.18896744
102	0x3d8cfb64	0.068838865
103	0x3e57e323	0.2108274
104	0x3d2742ed	0.04083531
105	0xbdadea15	-0.08491913
106	0x3cefd9d8	0.02927868
107	0x3de03ac9	0.109487124
108	0x3d8de44c	0.0692831
109	0x3e0cc80e	0.1374819
110	0x3c98caf0	0.018651456
111	0xbd8f2023	-0.069885515
112	0xbe1581d7	-0.14600311
113	0xbdac50e0	-0.08413863
114	0xbd304534	-0.043034747
115	0xbd54de4a	-0.051969804
116	0xbe54b344	-0.2077151
117	0xbe735bf5	-0.23765548
118	0xbde189df	-0.11012625
119	0xbe4b9c05	-0.19883735
120	0xbd3c7a3a	-0.046015
121	0xbd170d47	-0.036877897
122	0x3b93d5f0	0.0045115873
123	0xbd36e16a	-0.044648565
124	0x3cb655e9	0.022257762
125	0x3d007734	0.03136368
126	0x3d8ecbaa	0.069724396
127	0x3d01601e	0.031585805
128	0x3d4cabaf	0.049968418
129	0xbc0b381a	-0.008497262
130	0x3c4e984b	0.012609552
131	0x3d90565d	0.070477225
132	0xbec67272	-0.3875919
133	0xbdb46e46	-0.088100955
134	0xbd513a2b	-0.051080864
135	0xbd8f25ef	-0.06989657
136	0xbe77c94a	-0.2419788
137	0x3d5b8e54	0.05360253
138	0x3d668d33	0.056287
139	0x3de79701	0.113080986
140	0xbe92fd50	-0.28708887
141	0x3d87b614	0.066265255
142	0xbb0e2c4c	-0.0021693883
143	0x3db716b0	0.08939874
144	0x3da35041	0.079742916
145	0x3d9f69af	0.077838294
146	0x3c157cff	0.00912404
147	0x3ba3154b	0.0049769036
148	0xbd15159f	-0.036397573
149	0xbe8ebb49	-0.27877262
150	0xbeb439db	-0.3520039
151	0xbe4bc515	-0.198994
152	0xbe388265	-0.18018492
153	0x3b443f1e	0.0029944847
154	0x3cc9cc53	0.024633562
155	0xbd8a3693	-0.067486905
156	0xbe23ee79	-0.16008939
157	0x3db68699	0.08912391
158	0x3d94e0f4	0.07269469
159	0x3c929c19	0.017896699
160	0xbe66bcab	-0.22532909
161	0xbd20b578	-0.039235562
162	0xbc4bbe6f	-0.01243554
163	0xbe04c5ae	-0.12966034
164	0xbe8fcf1e	-0.28087705
165	0xbb922d32	-0.004460954
166	0x3d53e4c5	0.051731844
167	0x3d5ba4fa	0.05362413
168	0xbee6fad6	-0.45113248
169	0xbe4c5a77	-0.19956385
170	0xbdd2821b	-0.10278722
171	0xbde5cd4b	-0.11220797
172	0xbbf6bdb4	-0.0075299386
173	0xbbd25252	-0.0064185048
174	0x3da293c1	0.07938338
175	0x3da7f311	0.08200658
176	0x3d771905	0.060326595
177	0x3d420df0	0.047376573
178	0xbe1595a6	-0.14607868
179	0xbe9a7b4c	-0.30172193
180	0x3cb5bf7d	0.022186035
181	0xbd9ae2ec	-0.07562813
182	0x3d8c74e2	0.06858231
183	0x3d404af7	0.046946492
184	0x3d6904e5	0.056889433
185	0xbcc9ec0b	-0.024648687
186	0x3d92f492	0.07175554
187	0x3dae4671	0.085095294
188	0xbe492287	-0.19642077
189	0xbe73b123	-0.23798041
190	0xbe013464	-0.12617642
191	0x3ce6b6c9	0.02816333
192	0xbdf80b59	-0.121115394
193	0xbe12ab65	-0.14323194
194	0x3d3d6c63	0.046245944
195	0x3cd8e30f	0.026475457
196	0xbd57e2c0	-0.05270648
197	0x3da91923	0.082567476
198	0x3de2843c	0.11060378
199	0x3e0237fb	0.12716667
200	0x3c33dbbd	0.010977683
201	0xbe10a9ac	-0.14127225
202	0x3cc16f9a	0.023612786
203	0x3d7a5fa6	0.061126374
204	0x3d833e5c	0.064083785
205	0xbe8cafed	-0.2747797
206	0xbea397a5	-0.31951633
207	0xbe3fe39d	-0.18739171
208	0xbdaa6d9a	-0.08321686
209	0xbd7d5f69	-0.06185857
210	0xbd55e2e5	-0.052218337
211	0xbe2d7a0d	-0.1694109
212	0x3d7c4b95	0.06159552
213	0xbc923ffb	-0.017852774
214	0xbe49bf00	-0.19701767
215	0x3da0511b	0.0782797
216	0x3e2155c8	0.15755379
217	0xbde8addf	-0.11361288
218	0xbd4ad99f	-0.049523946
219	0x3d4e34f5	0.050343473
220	0xbbcff03a	-0.006345776
221	0xbd9fe0a7	-0.07806521
222	0xbbb378c8	-0.0054770447
223	0x3d888d82	0.066676155
224	0x3d7e1029	0.06202713
225	0x3cd75440	0.02628529
226	0xbe1f89e6	-0.15579948
227	0xbd334419	-0.043766115
228	0x3d9618b1	0.07328928
229	0x3da993eb	0.08280166
230	0x3c0b5ddf	0.008506267
231	0x3db3a999	0.087725826
232	0x3dd2b032	0.10287513
233	0xbe08ea6e	-0.13370678
234	0x3bac4d76	0.0052582575
235	0x3dc9e2b9	0.09857697
236	0xbc802a15	-0.015645066
237	0xbe06ace3	-0.13151889
238	0xbd5e3fc7	-0.05426004
239	0xbdc32327	-0.09528189
240	0xbd983580	-0.07432079
241	0x3c240b1f	0.010012417
242	0x3d2ca86e	0.042152815
243	0x3d102f1b	0.035201173
244	0xbd20ec2e	-0.03928774
245	0x3d39c18d	0.0453506
246	0x3d8b1132	0.06790389
247	0x3d689c9f	0.05678999
248	0xbdab3785	-0.08360199
249	0xbbd38453	-0.0064549833
250	0x3c3debb5	0.0115918415
251	0x3daeac11	0.08528913
252	0xbd4e36f3	-0.050345372
253	0xbd856c1a	-0.06514759
254	0xba6c873f	-0.0009022839
255	0x3dd3062e	0.10303913

fc.bias f4 [10]
0	0xbbdbf6f5	-0.006712789
1	0x3d929390	0.071570516
2	0xbd9297db	-0.071578704
3	0xbddf8dc4	-0.109157115
4	0xbdfe3b5c	-0.12413666
5	0xbdf506e0	-0.11964202
6	0x3d2b8b46	0.04188087
7	0xbe1875a8	-0.14888632
8	0x3e6f7225	0.23383386
9	0x3d051866	0.03249397
