mnist_uint8/model.onnx (onnx, 140957 bytes, 6 tensors)

conv1.weight f4 [32, 1, 3, 3]
00000000: 00a2 683e 7cda 763e 2466 1cbe 8ad9 523e
00000010: 6b0e 83bd 4bcd bd3c 0826 5cbe f11b 533e
00000020: a308 973e 60b1 87be 3609 933e 36c7 ad3d
00000030: b10f 3f3e 0b29 823d cf96 453e dc1e 19b9
00000040: a5b4 913e b6d3 8e3d 703d e9bb 7cef bb3e
00000050: f120 f63d 0c5c 53be 56bf f83d 2af9 193f
00000060: b3dc 29bf 450f c1be 2a4e e53d ae8a aabe
00000070: 8fb9 7bbe 2a84 15bf 0e7f dd3e 01bb 2abe
00000080: b794 a83e 4785 633e 7493 cd3d 81ee ba3e
00000090: 2ad4 033e 89a7 b03e 0ea1 9a3d 2ddc c1bd
000000a0: cb0a 113e e5b1 83bd 2943 573e 8fc6 bd3e
000000b0: 41d0 653e a7c6 043e 663f 043f 42cd 923e
000000c0: a1a3 d13e 4a94 e1bd 5566 e2be 844d 97be
000000d0: 5183 0cbf 3a47 243e 783a 8a3d 1a80 163e
000000e0: a1f7 283e f559 433d 398c 8d3e 3e48 96be
000000f0: 0ecc 203b 4db6 81be 3116 ffbd 8529 223d
00000100: 45e7 6f3d 583c b4be 1836 d33e f2a9 fcbd
00000110: 1970 d1be b70d cbbd af78 fb3e 5dc2 723e
00000120: 7878 8d3e 2a49 02bf 1202 17bf a0ad aabd
00000130: 9640 20be 4e82 443e f092 b93e b642 0e3f
00000140: 3265 ad3d 492e 77be 1aed 823e 575b a4bd
00000150: 951a 9d3c 348e 94b8 7130 c03e e0bc 11bf
00000160: 5dfd 74be a58a 9f3e eb6b 723e 94a3 493c
00000170: f42a fb3d 2cdf eb3e 7fab 37be 962c d8be
00000180: 8790 ff3e 98f1 26be 3783 debe db22 a5be
00000190: b078 43be 5c88 aa3d f836 34bd e3c4 77be
000001a0: e01a 003c 9328 69be 04cb 90be a3f5 3bbe
000001b0: ee0a f3bc acdd ac3d 6c01 183f aff4 a13e
000001c0: 44d2 843e ffcf 6fbe d3dc 95be 957a fcbe
000001d0: d73c 7cbe 5a2c 96be 4312 13be 7658 4cbe
000001e0: 0028 723a c005 febd 4039 bdbc 304c 67be
000001f0: 204a 6abe 6e22 47be e286 e5be 4ea0 8abe
00000200: 8612 d23e a715 98be fd20 b63e ad94 7c3e
00000210: c4f4 61be dee7 b23e 46f4 90bb 163f 0ebe
00000220: a5be c5be 1310 e2be 16ec 2abe 2b0b 9ebd
00000230: e2cb 923e 7809 c3be 9e69 fc3e a23a 52bd
00000240: 510a adbd 4aed 673e 9d98 ad3e 7c9c d33e
00000250: 98b0 e23e 2481 adbe 34b7 7d3e 8da8 30be
00000260: 581d d2be 551b 89be de6b 983e 2600 9ebe
00000270: c25b b03d 5e89 0b3e 55dd dc3d 938a 44be
00000280: 041d ab3e 28b2 123e bda3 613c 0aef 13be
00000290: 022c ce3e 4a50 12be bc2e 85be e6d1 033f
000002a0: 4eab c2bd a026 edbe e8e6 8bbd 2321 193e
000002b0: 6243 a43e d549 5bbe 6de9 333d 776c 9a3d
000002c0: b895 eebe afad 9c3e a937 a93e adb4 2bbf
000002d0: 0d22 fa3d 7adf 0d3e ec0e cb3d 250f 0abd
000002e0: 2cbc 653e 5f85 833e ab2c 553e 90e1 03bd
000002f0: 6916 36be 2a21 5e3d 6278 c9bd 285c 50be
00000300: 852e 633e b06c a23e 5529 13bd d1d5 b5bd
00000310: 7176 7c3c cc32 a83c 7d28 553e d055 193e
00000320: 5699 2ebe c183 36be efdd 4e3e c1b8 84bd
00000330: ac10 5abe 3981 e6be d273 11bf c1a0 9fbe
00000340: 8fb3 cabe 05cd 32be 5097 bb3e 43d9 343e
00000350: dc31 9bbe 74ed e7bc 0029 063e bd87 f83e
00000360: bf6e 953e fb43 813e 0b76 c33e 77dc 73bd
00000370: 3828 27bb 8fb5 f03e 8221 e6be a608 d7be
00000380: 49df 02bf e923 573e 73f4 4e3e 445b 2a3d
00000390: a2f9 85be d782 d2be ddd9 d7be e508 693e
000003a0: d691 563e 724e aa3e 0fa4 ba3e 5c40 d13e
000003b0: 6e4b 593e c398 06bf b0aa 7cbe 68dd 24bf
000003c0: d97b 86be bf87 dcbe 7056 5abe d72b 19bf
000003d0: c7cb febe 67e3 a4be 5fac efbc 727d 76bd
000003e0: db82 20bf a444 123f e371 573e b609 37be
000003f0: bc30 89be bf41 e9be b128 3ebe 61cf aebe
0.22718048 0.24106783 -0.15273339 0.20590797 -0.063992344 0.02316918 -0.21498883 0.20616128
0.29498777 -0.26502514 0.28717965 0.08485262 0.1865833 0.063554846 0.1929581 -0.00014602713
0.28458133 0.069739744 -0.0071179196 0.3670615 0.12018002 -0.20640582 0.121458694 0.6014582
-0.66352385 -0.37706962 0.11196549 -0.3330893 -0.24582504 -0.5840479 0.43260998 -0.16672899
0.3292596 0.2221881 0.1003789 0.3651009 0.12873903 0.3450282 0.0755025 -0.09465823
0.14164273 -0.06430415 0.21021713 0.3706555 0.22442724 0.12966405 0.5165924 0.28672224
0.4094515 -0.11014612 -0.44218698 -0.29551327 -0.5488787 0.16042796 0.06749433 0.14697304
0.16500713 0.04769321 0.27646044 -0.2935199 0.0024535689 -0.25334397 -0.124554045 0.039590377
0.058570165 -0.3520229 0.41252208 -0.12337102 -0.40905836 -0.09914725 0.49115512 0.23706956
0.27630973 -0.5089289 -0.58987534 -0.083338976 -0.15649638 0.19190332 0.36244917 0.5557054
0.08466567 -0.2413875 0.2557152 -0.08025234 0.019177714 -7.083677e-05 0.37536958 -0.56928825
-0.23924775 0.31160465 0.2367398 0.0123070665 0.12264052 0.46068704 -0.17936514 -0.42221516
0.49914953 -0.16303098 -0.43459484 -0.32253155 -0.19089007 0.0832679 -0.043997735 -0.241962
0.0078189075 -0.22769384 -0.2827989 -0.18355422 -0.029668298 0.08440718 0.5937717 0.3163199
0.2594167 -0.23419188 -0.29270038 -0.49312273 -0.24632584 -0.29330713 -0.14362435 -0.1995562
0.0009237528 -0.124034405 -0.023098588 -0.22587657 -0.22879839 -0.19446728 -0.4482947 -0.27075428
0.41029757 -0.2970402 0.35572043 0.2466609 -0.22066027 0.34942526 -0.004423651 -0.13891253
-0.38622013 -0.4415289 -0.16691622 -0.07716974 0.28671175 -0.38093162 0.4929933 -0.051325448
-0.08449233 0.22649112 0.33905497 0.41330326 0.44275355 -0.3388759 0.24776918 -0.17251797
-0.41038013 -0.26778665 0.29769796 -0.30859488 0.086112514 0.1362662 0.10784403 -0.19193487
0.33420575 0.14325774 0.013771948 -0.14446655 0.4026795 -0.1428844 -0.26012218 0.51492155
-0.0950533 -0.4631853 -0.06831151 0.14954047 0.3208266 -0.21414883 0.043923784 0.07540219
-0.465986 0.3060126 0.33050278 -0.67072564 0.12213526 0.13854781 0.099149555 -0.03370585
0.22435063 0.25687692 0.2081782 -0.032197535 -0.17781986 0.054230846 -0.09837414 -0.20347655
0.22185715 0.31723547 -0.03592809 -0.08878673 0.015409098 0.020532034 0.20816226 0.14974141
-0.1705068 -0.17823698 0.20201848 -0.064805515 -0.21295422 -0.45020464 -0.5681735 -0.31177333
-0.39590117 -0.17461021 0.3663888 0.17661004 -0.30311477 -0.028311469 0.13101578 0.4854106
0.29186055 0.25247177 0.38175997 -0.059536424 -0.002550615 0.47013518 -0.4494744 -0.41998786
-0.51121956 0.21009792 0.20210437 0.041590944 -0.26167017 -0.41115448 -0.42158404 0.22757299
0.2095407 0.33262974 0.36453292 0.40869415 0.2122018 -0.52576846 -0.24674487 -0.6440034
-0.26266363 -0.43072316 -0.21322036 -0.5983252 -0.49764845 -0.32204744 -0.029256998 -0.060178228
-0.6269967 0.5713599 0.21039538 -0.17874798 -0.26794994 -0.45557973 -0.1857021 -0.34142593

conv1.bias f4 [32]
00000000: 06e7 10bd 2f02 01bd 6e96 a4bc 832f 19bd
00000010: d5ee 96be 4722 c8bd 82e0 c6bc 4960 27be
00000020: 34e2 16be b475 01bd 4e7a 88bd 5cdb dcbd
00000030: 6fb6 e7ba 54cd 90bd 128d 9dbd 26fb 00bc
00000040: 1b9f 4dbe 9872 9fbd 3143 cabb b6b5 e63c
00000050: 4694 aabd 7b22 35bd abeb 973e d84a 1abc
00000060: cae5 84bd 7033 cbbd e581 923e 5f35 303e
00000070: 6b7c 963d 191d 023e 71a5 07be b510 563e
-0.03537657 -0.031496223 -0.020091262 -0.037398826 -0.2947909 -0.09772163 -0.024276976 -0.16345324
-0.14734727 -0.03160639 -0.06663953 -0.10784027 -0.0017678271 -0.07070413 -0.07692923 -0.007872378
-0.20080225 -0.07785529 -0.0061725606 0.028162818 -0.08329062 -0.044222336 0.29671988 -0.009417258
-0.06489141 -0.0992192 0.28614727 0.1720786 0.073479496 0.12706412 -0.13246705 0.2090481

conv2.weight f4 [64, 32, 3, 3]
00000000: fc14 3eb9 4611 053d b62f 3c3d d054 7c3c
00000010: 7047 f2bc cf1a e0bd c43a 30be c538 02be
00000020: 40bd a3bd ed53 d03b ab68 d13d cddf c33d
00000030: eb48 d9bd 4a47 40bd cb49 88bd 2103 34be
00000040: 39d3 c8bd c165 143c 835b bc3d 48f2 123d
00000050: d47a bdbd 0bad 513e 3432 e13d 5602 8bbe
00000060: a578 50be 6e0b 4cbe cd9d 5fbe baab c7bb
00000070: 2f13 6c3c c578 053d 0646 7bbe 574a f8bb
00000080: fe0e e6bd 1ccf b03d 2cc2 c43d 49c6 2e3e
00000090: 6590 613d 5b0e 5d3d ba47 7b3a e4a0 26bd
000000a0: 807d c3bd 006b 47be 92d7 70be 30ae 1bbe
000000b0: bdef d53c af0a 78be f8c5 dcbd 745b ac3c
000000c0: d12e 07be ec9d 863d 5315 ab3e ea63 f4bd
000000d0: 1cd0 543e c19e 8abc 4488 48bd cccf aaba
000000e0: 4405 c83d 7908 883b e920 ff3d ca25 bb3c
000000f0: 5440 86bd e0a3 afbd d879 c9bd b0da 153e
00000100: b50c 793c 22e2 f3bd 79c6 28be 4892 08be
00000110: ddae 20be 78b9 22be 88c6 b1bd 6413 adbd
00000120: e82c 87bb b43e 443d 6b1e 89bd c5ca d1be
00000130: 021d a0bd 02b1 2ebe c613 60bb aaab 903c
00000140: 0b23 173e a261 e43d e379 633d 78e1 8ebd
00000150: da7f 863d 2f2b d13b af15 6fbe 7a97 50be
00000160: 966c 23be a95a cebd 5785 d33c 8546 2c3d
00000170: d0d5 133e f11c f3bd d29e 05bc 24ac 113d
00000180: 04c3 4fbe 3b24 3bbe 52ee 9abe 06c7 1dbd
00000190: 6085 3abb 328f b0bc d2ef 34bd 112a 0f3d
000001a0: 8f17 423d c49d 1c3c 6418 28bc 7e90 5fbd
000001b0: 19a6 58bd 1bb9 063c 04e9 6b3e 44ef 983d
000001c0: c8fb 1b3e c950 453e eb0e 20bd ef90 e53d
000001d0: b30e c6be 006c 6c3a 1cc9 3ebc d818 ea3b
000001e0: 6ee0 91bc ad7f 2f3d 00ca c8ba a167 3c3d
000001f0: e50f 683d 0c2d ebbc 33f5 6abd 71aa 0d3e
00000200: c0bb 053e db75 e4bd 1db3 bd3c b704 3ebe
00000210: 7437 2ebe a052 bdbd 9221 413d 4354 5ebe
00000220: e0ce ba3d 9556 aa3e 5722 e1bd 82e7 6dbc
00000230: a5ee 553e d6c3 6f3e 295d c43e 32d9 8c3d
00000240: fed3 793b af23 9c3c be51 d43d 88ae 18be
00000250: 8552 b23d 3e28 113e 5fb2 00be c284 94bd
00000260: 23ea d8bd ada6 d83b e1bf bd3c 091e 1f3d
00000270: 8c42 afbd 85c2 35bd 4d36 07be b76a a0bd
00000280: c1bd 2ebd 369a 8d3b 1fa3 be3d 7793 b43c
00000290: 449b 09bd f3d6 333e b762 943d 1e33 b1be
000002a0: 91fa efbd faf3 65be df0e afbe fcad f3b8
000002b0: 296d 3abd 2656 2abd 02b4 f5bd 8b52 5abc
000002c0: 8b0c 013e c929 84bd 3c75 f0bd 7961 20be
000002d0: d657 4bbc a497 7d3c 14b1 ff3d 8f8f c73c
000002e0: c292 ca3d 082a 76bc b5d6 60be 5287 36be
000002f0: c9d3 c6bd 9c04 103d 8ff3 8e3d d8a7 5bb9
00000300: b812 f7bc 890b 49bc c3fc e8bd 6869 42be
00000310: f00e e5bd e6d6 a1bd d80a 253d e1b3 52bd
00000320: 45d8 debb 013f 863d 2585 1d3d 689a d03d
00000330: 4260 c93c a36b fcbc 4381 43bb 6e9f bb3c
00000340: 22f8 ebbb 83f4 8dbd a3d3 23be 6079 e1bd
00000350: e5b7 e7bd ff45 063e 4a46 233e df67 a23d
00000360: 20fd a6bc 7748 86bb 0058 963d 1592 8b3e
00000370: 4328 f83d 4431 c6bc b681 49bd 1ae2 433c
00000380: edfe 6abe 7503 47bd 4a99 583d 2af0 8c3d
00000390: 0e0c 3e3d d657 103c 7ee6 a43d 79e7 68bc
000003a0: f4c5 a73c 3fea 4f3d 5d02 b1bd 3063 b3bd
000003b0: b8be a73d 1852 8c3d 47f2 c43d daba 353e
000003c0: 42f2 6f3d 3cc7 103e 8b2b 513c 7e60 1bbd
000003d0: ee75 84bd 1132 21be 6fbb 9ebd 944e d1bd
000003e0: 9040 9abd 2720 563c e66b d63b d35d 21bd
000003f0: 55ab d3bd 9b7c e93b e4cf 3c3c 024a 68be
-0.0001812763 0.032487176 0.04594394 0.01540108 -0.02957508 -0.10942613 -0.17209917 -0.12716968
-0.07995081 0.006357661 0.10225042 0.09564171 -0.10609611 -0.046942987 -0.066547 -0.17579319
-0.098059125 0.009057463 0.09197142 0.03587559 -0.09251943 0.20476167 0.109959036 -0.2715022
-0.20358522 -0.19926235 -0.2183754 -0.0060934694 0.014408871 0.032585878 -0.2453843 -0.0075772214
-0.11233328 0.08633253 0.09607348 0.17067827 0.055069346 0.05396877 0.0009585578 -0.04068078
-0.095454216 -0.19474411 -0.23519734 -0.15203166 0.026115293 -0.24222825 -0.10779947 0.021039702
-0.13201453 0.0657309 0.33414707 -0.119331196 0.20782512 -0.016921403 -0.048958078 -0.0013031899
0.09766629 0.0041514006 0.12457449 0.022845168 -0.06555238 -0.085761786 -0.09837693 0.14634204
0.0152007835 -0.11908366 -0.16481961 -0.13337052 -0.15691705 -0.15891063 -0.08680445 -0.08450964
-0.0041252263 0.04791136 -0.06695255 -0.40975013 -0.07818033 -0.1705971 -0.0034191473 0.01765998
0.14759462 0.111514345 0.055536162 -0.069765985 0.065673545 0.0063833217 -0.23348115 -0.20370284
-0.15959391 -0.10075886 0.025820417 0.04205944 0.14437032 -0.118707545 -0.0081555415 0.035564557
-0.20289236 -0.1827554 -0.3025995 -0.03851988 -0.0028460845 -0.021552656 -0.044174023 0.034952227
0.04738575 0.009559099 -0.010259721 -0.054581158 -0.052892778 0.0082228435 0.23038107 0.07467511
0.15232766 0.19269098 -0.039076727 0.112092845 -0.3868309 0.0009018779 -0.011644628 0.007144075
-0.017807212 0.04284637 -0.001531899 0.045997266 0.056655783 -0.028708003 -0.057362746 0.1383455
0.13059902 -0.11155292 0.023156697 -0.18556486 -0.17013341 -0.09244275 0.047151156 -0.21711831
0.091214895 0.33269182 -0.10992878 -0.014520528 0.20891817 0.23414549 0.38352326 0.06877364
0.0038120742 0.019059984 0.103671536 -0.14910328 0.087071456 0.14175507 -0.12568043 -0.07251884
-0.10591533 0.006611666 0.023162784 0.038847003 -0.08557615 -0.04437496 -0.13204308 -0.07832854
-0.042661432 0.004321362 0.09308457 0.022042973 -0.03359534 0.17562465 0.07245391 -0.34609312
-0.117177136 -0.22456351 -0.34191033 -0.0001161955 -0.04551426 -0.041586064 -0.119972244 -0.013325344
0.12602441 -0.064532824 -0.11741111 -0.15662183 -0.012411078 0.0154780485 0.12484947 0.024360446
0.09891273 -0.0150246695 -0.21956904 -0.17825058 -0.097083636 0.035160646 0.06980049 -0.00020947994
-0.030160293 -0.012270817 -0.113763355 -0.18985522 -0.1118449 -0.07902317 0.040293545 -0.051441077
-0.0068006837 0.06554986 0.038457055 0.10185701 0.024582032 -0.030813044 -0.0029831685 0.02290317
-0.0072012106 -0.069314025 -0.15998702 -0.110094786 -0.11314372 0.13112639 0.15944782 0.07929968
-0.020384371 -0.004097994 0.073410034 0.2725989 0.12117054 -0.024193414 -0.049195968 0.011955762
-0.22948809 -0.04858728 0.052880563 0.06881745 0.046398215 0.008810004 0.080517754 -0.014215344
0.020480134 0.050760504 -0.08643029 -0.08759153 0.081906736 0.06851596 0.09616523 0.1774706
0.058580644 0.14138502 0.012766729 -0.03793382 -0.06467806 -0.15741755 -0.07750594 -0.10220066
-0.075318456 0.013069189 0.006543624 -0.03939612 -0.10335413 0.00712545 0.011524174 -0.22684482

conv2.bias f4 [64]
00000000: 5223 bfbd 84f2 37bd a5b0 283c 6ff2 3dbd
00000010: 9fc3 b8bd 2b98 adbc 285a 7bbd 224f b6bc
00000020: f3d9 5dbd d1d3 fa39 bd66 353d 62e6 20bc
00000030: 03ff ed3b 0d1c fdbd b333 34bd 932a a4bd
00000040: 6b20 08bd 0392 a7bd 8676 81bd d62f c0bd
00000050: a449 a8bb a2af 6dbd 054c b7bd 52a0 61bd
00000060: 6955 84bd 6bc3 d03c fea9 2e3c 209b a6bd
00000070: d9c2 0d3d 0072 0cbd 5f7e f7bb 7bee 7cbd
00000080: 439e f4bd d154 8fbd 3fe7 08be 7d96 90bd
00000090: 27eb 47bd b391 2bbd 517e 28bd 9777 2b3c
000000a0: 7a6e c6bc 3b9e 5dbd e2e4 5b3b a4a7 b8bd
000000b0: 9496 84bd ec36 cb3c 340d 1dbc 9a56 4fbd
000000c0: 0e3f b73c 9377 8abd 2459 62bd 6ba0 0dbd
000000d0: a825 21bd 8797 b6bc fcc4 f1bd 6bf1 5abd
000000e0: 9c4b c73b 23ca a2bd 0c7d b0bd a6af cbbc
000000f0: 76a2 45bc f0d9 9bbd a0f2 943c 9e92 1b3d
-0.09332909 -0.044909015 0.010296022 -0.04637378 -0.09021687 -0.021190723 -0.061365277 -0.02225453
-0.05416293 0.0004784153 0.044287432 -0.009820553 0.007263066 -0.12358866 -0.043994617 -0.08015933
-0.03323404 -0.081821464 -0.06321435 -0.09384124 -0.005135732 -0.058028825 -0.089500464 -0.055084534
-0.06461603 0.025483808 0.0106606465 -0.081350565 0.03460965 -0.034288406 -0.0075529064 -0.06175087
-0.119442485 -0.06998599 -0.13369463 -0.07059953 -0.048808243 -0.041886996 -0.04113609 0.010465524
-0.024222601 -0.05410598 0.0033553173 -0.0901635 -0.06474033 0.024806462 -0.009585667 -0.0506197
0.022368934 -0.06761088 -0.055260792 -0.034576815 -0.039342552 -0.02228905 -0.1180515 -0.05345289
0.0060820114 -0.07948711 -0.08617601 -0.02486403 -0.0120626595 -0.07609928 0.018182099 0.037981622

fc.weight f4 [10, 1600]
00000000: 45a8 1f3d ce84 a1bd 8c82 89bd 7119 02bd
00000010: 6690 4cbd 015b 0c3c 5617 27bd 945a 6bbd
00000020: 5c84 59bd 304c 0fbe 5598 49bd 75ec bfbd
00000030: d4ff 09bd efa9 51bc aab9 15be da31 ddbd
00000040: 2c9d 36be 4382 1ebe 8abe 6837 8550 873d
00000050: 16e5 ffbc 4a5f c2bc 6fd7 74bc b8bd 743d
00000060: fcb8 183d f0d5 57bd 9e0a b3bd 6731 a1bd
00000070: 4ef5 bbbd c039 103d 5958 05bd 52fa e9bd
00000080: b488 163b 730e dd3d ce83 203e 5d16 bf3b
00000090: 982b 90bd 78fb a8bc 27c4 ce3a 13c6 d43d
000000a0: 7e4e 483d ce92 0c3c fea1 0abe fabc 3dbd
000000b0: e317 bc3c e139 75bc 9884 913d 7018 6c3d
000000c0: c278 7abe ad21 2dbe 9c0a dd3c bb57 08bd
000000d0: 0a0e 833c 9cb4 a63b 644c 0f3d 5011 773d
000000e0: b493 90bc ee50 0bbd 3051 e03c ef29 943d
000000f0: 8f23 ecbd f37a 2ebe f683 e2bd b755 f4bd
00000100: 9844 7bbd 8aaf 49be a339 38be 1c7e 1f3d
00000110: 5cfd 573d ba8c 4cbc 1b2e b7bd 1fdc 61bd
00000120: 7c1d 0d3b bedd e33c e650 13bd 7bb6 663c
00000130: 63d1 b0ba f62f 8fbc ba6d 5cbb a743 28ba
00000140: 2679 833b 27ed 533c 3b3d 8bbb 96d0 533c
00000150: 1030 0d3c 9bd9 abbc e022 e3ba fdf1 1bbc
00000160: 4a81 c23a 0e2e 4cbc 5398 be3a 8f84 c83c
00000170: 1e5a 01bd 418b c3ba 97ce 2e3c fc78 0fbb
00000180: 5b1f 0ebb 8691 a2bc 909e f1bc b7df e9bc
00000190: 3d1f 12bc 7aee 69bd fd28 5abd c3b1 763c
000001a0: 2b1f 553d 1a33 b9bc b185 80bc 474c a13d
000001b0: 4fba 133d a7f7 353d e561 573a 3a8c c1bd
000001c0: 4f8f a4bd f15d 843d 9249 a43a 1601 753d
000001d0: 994b a3bc a241 8abd 5b30 2cbe 2ac7 27be
000001e0: 7bf8 523b 1a2b 063d 65ab 2b3d 5cc8 df37
000001f0: 0749 3fbe b4e5 ca3b c8c1 b93b e5f1 c23c
00000200: 3d07 21bc cde6 7fbc 5716 c83c f9c5 8c3c
00000210: f844 b5bc 8ad2 bfbc 327c 183c f307 4cbc
00000220: 2cc5 8e3b 0019 d7ba 58d8 febb 99d3 ae3c
00000230: 1a50 063c 6c88 f63b bab7 99bc 1a46 713c
00000240: 6275 3f3c a225 613c c03a 2e3b a296 c8bc
00000250: 4a56 5cbc d9ce c93c 580d b93d 28f8 04bd
00000260: 5163 c13d 5ee3 d33c 3f6e 953d fde3 99bd
00000270: b0dd ccbd e77a 5cbc 22dc 8d3d 1e58 d93d
00000280: 61e9 0fbd 18a9 683c d050 3fbd 6768 0ebb
00000290: 4f85 ff3c d56b 2e3d a3b8 ce3b ed8e 8fbc
000002a0: 2c16 28be c956 5dbd 7007 663d 2f37 f83c
000002b0: 6cf7 cb3d 8923 45be 5a4b 84be cfd8 e53c
000002c0: 4a85 8fbc c0c2 3636 dbd1 8f3c 05d0 f43c
000002d0: 2587 573d 5968 9a3d 3cb2 b43d 1e9d f0bb
000002e0: 7957 c53c abdf 1bbc ae29 e2bd cc7c aabe
000002f0: 9780 1abe 2b36 ffbd 3802 36be ab08 f6bd
00000300: 5d19 153d acb1 943d 0da8 033d 7cf4 10be
00000310: ecfa 54bd 6d47 07bd b99e d23c 8b80 86bc
00000320: 81d3 96bd b5ca eebd 8d20 89bd 5a88 15bd
00000330: 04d4 0bbd c773 cbbd 4038 b33b 701f 4b3d
00000340: 6e53 90bd 9c54 0abc 0fe6 803d 2ecc c93c
00000350: e837 583d e678 89bd 747c 38b8 743f 0a3d
00000360: 58a4 8e3c dc4c a13d a284 783c e820 e73c
00000370: 692b 3c3d 5e79 903d 164f 14bd fed5 c2bd
00000380: 2ce8 4fbc db75 e23c 5cf5 9ebc 4f90 293c
00000390: 6400 8cbc 4d82 16bd 6f40 3c3d 395f 073d
000003a0: dd8f 5a3c 60af e23c 1c2b a53d 223f a7bd
000003b0: cefa 63bd ba1c eabd 7e6a 1fbe 99f8 cebd
000003c0: 743b 06be 94ab 223c 6e95 58bc 0f1e bdbb
000003d0: 0af2 8fbe 4f48 a2bd 78b1 683d 8512 813d
000003e0: 51d6 79bc 6576 81be c3b1 be3c 2486 47bd
000003f0: 950a 193d d19b 9f3c 9b35 2abc bcd8 f0b9
0.038978834 -0.078866586 -0.06714353 -0.031762544 -0.049942397 0.008566619 -0.04079374 -0.05745943
-0.053104743 -0.13993907 -0.04921754 -0.093712725 -0.033691242 -0.012796863 -0.14621606 -0.10800524
-0.17833394 -0.15479378 1.3872641e-05 0.06607155 -0.031237166 -0.023727078 -0.0149439415 0.059751242
0.03728579 -0.05269426 -0.087422594 -0.07870751 -0.091776475 0.035211325 -0.032554958 -0.11424698
0.0022969665 0.107937716 0.1567528 0.0058315233 -0.07039565 -0.020627722 0.0015775011 0.10389342
0.04890298 0.008579923 -0.13538358 -0.0463228 0.022960609 -0.014967413 0.071053684 0.057640493
-0.24460128 -0.16907378 0.026982598 -0.03328679 0.015997905 0.0050874483 0.03498496 0.060319245
-0.017648555 -0.034012727 0.027382463 0.07234561 -0.1153022 -0.17039089 -0.11060326 -0.11930411
-0.061344713 -0.19695869 -0.17990737 0.038938627 0.052731857 -0.012484724 -0.08944341 -0.055141564
0.0021532467 0.027815696 -0.035965823 0.014081593 -0.0013490136 -0.017478924 -0.0033634738 -0.00064187724
0.0040122448 0.0129349595 -0.0042492426 0.012928149 0.008617416 -0.020977786 -0.0017329119 -0.009518144
0.0014839557 -0.012462152 0.0014541246 0.024477271 -0.031580083 -0.001491882 0.010669372 -0.002189218
-0.002168617 -0.019844782 -0.029494554 -0.028549058 -0.008918581 -0.057112195 -0.053261746 0.01505703
0.052031677 -0.022607375 -0.015688749 0.07875877 0.03606635 0.044425633 0.00082161865 -0.09450574
-0.080351464 0.064632304 0.0012534133 0.05981549 -0.019933509 -0.067508 -0.16815321 -0.16384569
0.0032191563 0.03275595 0.0419115 2.6676971e-05 -0.18680201 0.0061919335 0.0056688525 0.023796985
-0.009828386 -0.015618992 0.024424715 0.017184244 -0.022127613 -0.023415823 0.009306954 -0.012453067
0.004357001 -0.0016410649 -0.007777255 0.021341132 0.008197809 0.007523587 -0.018764365 0.014726186
0.011685701 0.0137418825 0.002658531 -0.02448589 -0.013448307 0.024634765 0.09035748 -0.032463223
0.09442771 0.025865253 0.072964184 -0.075141884 -0.10003221 -0.013457037 0.069267526 0.1061251
-0.035134677 0.014200471 -0.04670793 -0.002172971 0.031191496 0.042583305 0.0063086315 -0.017524207
-0.16414708 -0.054037843 0.056159437 0.030299751 0.09959301 -0.19251837 -0.2583874 0.028057484
-0.017519612 2.7233473e-06 0.017556122 0.029884348 0.05261912 0.07539434 0.08823058 -0.0073429486
0.024089562 -0.009513776 -0.11043106 -0.33298337 -0.15088116 -0.124615036 -0.17774284 -0.12013372
0.03640114 0.07260451 0.032142688 -0.14155763 -0.05199711 -0.0330271 0.02571045 -0.016418716
-0.0736456 -0.11659757 -0.06695662 -0.036506988 -0.03413774 -0.09934192 0.005469352 0.049590528
-0.07047163 -0.008443024 0.0629388 0.024633493 0.05278769 -0.06712513 -4.3984925e-05 0.03375192
0.01741235 0.07875988 0.015168341 0.028213933 0.045939837 0.07054399 -0.036208235 -0.09513472
-0.012689631 0.027644088 -0.019404106 0.010349347 -0.01709003 -0.03674536 0.045959886 0.033049796
0.013339964 0.027671516 0.08064863 -0.081663385 -0.055659108 -0.114312604 -0.15567967 -0.1010601
-0.13108617 0.009928603 -0.013219221 -0.0057714055 -0.2811435 -0.07923948 0.056809872 0.063023604
-0.015248851 -0.2528564 0.023278123 -0.04871191 0.037363607 0.019483479 -0.010388757 -0.00045937847

fc.bias f4 [10]
00000000: 06e8 393c 3f49 f33d 92d7 c0bc 5101 c5bc
00000010: cf5e 30bd d90b 3ebd 02ae d8bc 8745 ca3c
00000020: fdcf 09bb 5c6a fabb
0.011346823 0.11879205 -0.023540292 -0.02404848 -0.043059167 -0.046398018 -0.02645016 0.024691356
-0.0021028512 -0.0076420736
